specq_lab3/model80.ckpt (torch, 438687 bytes, 26 tensors)

conv1.weight f4 [32, 3, 3, 3]
000000 8f 6f 7b bc 56 40 91 3d 34 9a 3c 3e a1 0a 55 be
       -0.015346422 0.07092349 0.18418199 -0.20804836
000010 7f 99 b0 3e ac 56 c5 3d 44 22 a1 be 77 6d 82 3e
       0.34492108 0.09635672 -0.31471455 0.2547414
000020 43 5b f3 3b 69 28 a1 bd 4e f6 3c be c5 ca d7 3a
       0.0074266507 -0.07869036 -0.18453333 0.0016463628
000030 cc cc ca bd 6a 58 46 3e da 87 78 be d6 07 ba be
       -0.09902343 0.19369665 -0.24270573 -0.36334103
000040 51 8a 58 3e 5b b5 82 be 5d 3e 10 bd e6 3b cf bd
       0.21146514 -0.25528988 -0.035215724 -0.101188466
000050 d2 7b 91 3d 59 93 d3 3d c8 17 e3 3d 8c 4d 42 3e
       0.07103695 0.10330839 0.1108852 0.18974894
000060 1e 19 d8 bd f3 e0 95 3e 59 9e 0e be 89 4c 63 3e
       -0.10551666 0.29273185 -0.13927592 0.22197165
000070 86 aa 7c bc a5 8b 6f be ac f9 b9 3e 1d ee 0b be
       -0.015421515 -0.23393114 0.36323297 -0.13665052
000080 34 f2 07 bd 61 67 11 3e ed f6 9d bd 3e 05 0c be
       -0.033189967 0.14199592 -0.07713113 -0.13673875
000090 ed 14 62 3e 33 c6 09 bd d2 4f 79 be 32 62 d1 3e
       0.22078295 -0.033636283 -0.24346855 0.4089523
0000a0 dc 2f a6 bd 56 bc b7 be c4 f1 60 3e 5a 79 d2 bd
       -0.08114597 -0.35885876 0.21967226 -0.10277052
0000b0 ec 36 50 be 2f 89 b5 3d eb b2 c3 3d 13 33 a4 be
       -0.20333451 0.08864056 0.0955561 -0.32070217
0000c0 81 96 07 3e 35 ff 17 be 5f d2 77 bc c9 9d ae 3e
       0.13241006 -0.14843448 -0.01512584 0.34104756
0000d0 81 d0 3c be be ba 53 3d 60 0f 61 be f3 97 92 bd
       -0.18438913 0.051691763 -0.21978521 -0.07157888
0000e0 93 3f c9 3e c7 32 2f be 36 a7 39 be f0 5b c2 3e
       0.39306316 -0.17109214 -0.18130192 0.37960768
0000f0 1e 65 2e be ce ff eb 3c fa 49 f7 bc 50 96 6a 3d
       -0.1703076 0.0288085 -0.030186642 0.057272255
000100 48 bb a9 bd 1f e3 02 3e d7 b0 61 3e ee 59 54 be
       -0.08287674 0.12781952 0.22040115 -0.2073743
000110 4b a3 8d bd f4 bd b7 3d 5e b8 28 be 5e 48 0d 3e
       -0.06915911 0.089717776 -0.1647658 0.13797137
000120 96 1b f9 bd 9d 7a b2 bd c0 56 50 be 6b ec 89 3e
       -0.12163465 -0.08714793 -0.20345592 0.26938185
000130 a9 9c 55 be 90 8b 94 3c 45 a1 a5 3e 57 60 21 3e
       -0.20860542 0.018132955 0.323496 0.15759407
000140 e1 ea 4f be 44 a9 01 be 4c c6 c9 bd d4 ee c6 3b
       -0.20304443 -0.12662226 -0.09852275 0.006070951
000150 a9 3d 6d 3e 38 95 8e bd 00 e7 b8 bd dd cf 84 3d
       0.23168053 -0.06962055 -0.09028435 0.06484959
000160 5c 21 3e be fe e9 a8 bd 57 ec be bd 30 08 7f bd
       -0.18567413 -0.082477555 -0.09322422 -0.062263668
000170 d8 22 ac bc 4c a1 0d bc 65 b5 7e bc 8f bd c9 bd
       -0.021012709 -0.008644413 -0.0155461775 -0.098506086
000180 d4 6d ff bd b5 02 5e be 7f 13 28 3e f2 f8 db bd
       -0.1247212 -0.2168072 0.16413687 -0.10740842
000190 31 c2 09 3d 7d 21 34 be 4b ef 25 3e 2e b9 62 3d
       0.03363246 -0.175909 0.16204564 0.055352382
0001a0 f6 8e 30 be 52 dd 25 be 37 17 97 3c 12 4b 00 3e
       -0.17242035 -0.16197708 0.018443687 0.12528637
0001b0 00 44 22 3e 7c 32 75 3e aa 01 39 bd df 54 7e bd
       0.15846252 0.2394504 -0.045167603 -0.062092658
0001c0 bc 7d 23 be 9e 5a 2b 3d b9 15 dd b9 d6 db 24 be
       -0.15965933 0.041834466 -0.0004216859 -0.16099486
0001d0 5d e9 2c be f3 9f 4b 3e 46 23 62 3d 84 72 6f 3e
       -0.16885896 0.19885235 0.05520942 0.23383528
0001e0 ed b6 27 3d 7d 2c d6 bc 2c bf 47 bd d1 58 04 bd
       0.040945936 -0.02614426 -0.0487663 -0.032311264
0001f0 89 f8 9b be 0c fd a5 bc 87 30 6a 3c fa 97 05 3e
       -0.30463055 -0.020262264 0.014293796 0.13046256
000200 3b 4b 02 3e d2 25 86 bc 2b 79 77 bd 5c 97 7f 3c
       0.1272401 -0.016375456 -0.06041829 0.015600052
000210 c5 05 71 bd 16 96 5d be da e9 0e 3e dd 8d c5 bd
       -0.058843393 -0.21639284 0.13956395 -0.09646199
000220 e2 b1 02 be eb d1 10 3e 17 fe 02 3e 16 da 26 3e
       -0.1276317 0.14142577 0.1279224 0.1629413
000230 9b 84 ac bc d3 14 29 3e e4 4a 39 3e 42 62 81 be
       -0.021059325 0.1651185 0.18094975 -0.25270277
000240 b7 1e 8d 3d a4 dc 47 3e 85 f6 66 3e 33 c2 95 bb
       0.06890624 0.19517761 0.22554977 -0.0045702695
000250 db eb f7 3c 95 73 e7 bd e6 5e 12 be ea 80 0c 3d
       0.030263832 -0.113013424 -0.14294013 0.03430263
000260 cd 5c a2 3d 60 09 b1 3d 75 17 27 be a7 24 92 3d
       0.079278566 0.08644366 -0.16317542 0.07135897
000270 40 48 51 be ff 28 26 3e 24 4b 35 3e 56 a4 07 be
       -0.20437717 0.16226576 0.17704445 -0.13246283
000280 6d 9f d5 bd 24 2d ef bd b8 fe 9c bd 45 a9 20 3d
       -0.10430799 -0.11678532 -0.07665771 0.039223928
000290 3c fa 49 be 21 4a 5c 3e b5 58 2a 3e e9 b5 95 3c
       -0.19724363 0.21512653 0.16635402 0.018275218
0002a0 86 a3 f1 bd bb 98 8f bc 42 44 cf 3d 7f 5d 4b be
       -0.11798768 -0.017528882 0.10120441 -0.19859885
0002b0 68 b3 1a be 84 81 4f be 7a c5 7d 3c 3d 32 39 3e
       -0.151075 -0.2026425 0.015488977 0.1808557
0002c0 de 8e 81 be 19 d7 ba 3d b8 7c 98 3d 69 49 6b 3d
       -0.25304312 0.09123058 0.07445663 0.057443056
0002d0 f1 fd 2c 3e 5e 28 82 3e 1f 2c 34 bd 5a d2 82 bd
       0.16893746 0.25421423 -0.04398739 -0.063877776
0002e0 25 fe 41 3e cc ef c1 bd ff 0e d1 bd 5f 8a b3 bd
       0.18944605 -0.09469566 -0.102079384 -0.087666266
0002f0 19 fe 25 bd 2e 10 55 3e 4f b0 15 be 89 29 09 be
       -0.04052553 0.20806953 -0.14618038 -0.1339475
000300 3d dd cd bd 62 0e a3 be 9d c7 5a 3e 8a 0e 56 3e
       -0.100519635 -0.3184691 0.21365209 0.20903984
000310 87 2f 0b 3e 32 a0 e9 3c b5 ac 9f 3e 67 e8 3d be
       0.13592349 0.02851877 0.31186453 -0.18545686
000320 8a 20 8f 3c 88 0a 8c 3d 89 a0 ad be b3 ed 7b 3e
       0.01747157 0.06837946 -0.3391154 0.24602394
000330 3e ff aa bd 4b c4 fe bc b3 2a 14 be b5 5c 16 3d
       -0.08349465 -0.03109946 -0.14469413 0.036709506
000340 bc 38 ce 3c a5 0a aa bd f4 37 d8 bd 3b ca 53 be
       0.025173537 -0.083028115 -0.10557547 -0.20682614
000350 65 58 a1 3e 3e 9a 96 bd 6f 96 11 3e f7 22 93 bc
       0.31512752 -0.07353638 0.14217542 -0.017961008
000360 3e 7d f8 3d 8a d0 94 3d 5f 40 44 be cd 10 0a bb
       0.12133263 0.07266338 -0.1916518 -0.0021067143
000370 e0 1c 88 3d e3 53 e4 bd 72 2d b3 bd 16 ca 1b be
       0.066461325 -0.111488126 -0.087489024 -0.15213808
000380 22 7b 0e bd 94 72 71 bd 8e ca 81 be f7 96 62 be
       -0.034785397 -0.05894716 -0.2534985 -0.22127901
000390 52 e3 fc 3b 90 7c 8a bd 89 c7 81 bd aa 6d d4 bd
       0.0077175284 -0.0676204 -0.063368864 -0.10372479
0003a0 c5 ec 29 be 5d c2 03 3e af 3d 50 3c 13 8e e4 bc
       -0.16594227 0.12867112 0.012710019 -0.027899778
0003b0 89 f6 c9 bd 77 19 47 3e 41 c3 8e 3e 19 87 3a 3e
       -0.09861476 0.19443308 0.27883342 0.18215598
0003c0 ff c0 a1 3e 0f d4 89 bd 34 13 25 3e 17 e8 4f 3e
       0.31592557 -0.067299 0.16120607 0.20303379
0003d0 1f 9b 35 bd d8 31 c8 3c 2b 9d 26 bc dc 5c 66 bd
       -0.044337388 0.02443783 -0.010169308 -0.0562409
0003e0 c9 35 04 be 50 20 5f 3e af 3e ac bd 08 73 f6 bd
       -0.12911142 0.2178967 -0.084103934 -0.12033659
0003f0 97 35 15 be d1 bd ae 3d cb 73 15 3e 44 7d 05 bd
       -0.14571224 0.08532298 0.14594953 -0.032590166

conv1.bias f4 [32]
000000 3d 11 9f bd 91 e9 f3 3d c3 7e 8d bc 63 1a 2a be
       -0.0776696 0.11909784 -0.017272359 -0.16611628
000010 a5 32 41 be 86 6e ad bd 78 e9 37 be 93 96 34 3e
       -0.18866976 -0.08468346 -0.17960155 0.17635565
000020 a2 ce cd bd cc 89 28 bb e5 8b b7 3d 18 6e 02 bc
       -0.10049178 -0.00257169 0.0896223 -0.007960819
000030 a7 00 38 3e e7 86 3e 3d d0 71 87 3d 99 8b 3d 3e
       0.17968999 0.04651537 0.06613505 0.18510284
000040 28 dc 82 3d 44 b5 0f 3e 1f e5 20 be 6e 23 30 3e
       0.06389648 0.14033991 -0.15712403 0.17201015
000050 3b db dd bd 86 8e 4e 3d 50 f2 51 3d 67 dd 42 3e
       -0.108328305 0.05042889 0.051256478 0.19029771
000060 7a 3f 33 be 90 57 23 3d 4b d7 0b be d6 e5 49 3d
       -0.17504683 0.039878428 -0.13656346 0.049291454
000070 83 88 ee 3d fb a4 14 3e 90 2f ea 3d 9f b1 02 be
       0.11647131 0.1451606 0.11434853 -0.1276307

batchNorm1.weight f4 [32]
000000 c5 e7 8a 3f 0a 15 8d 3f 4d 7a 90 3f 06 3b 4b 3f
       1.085198 1.1022046 1.1287323 0.7938694
000010 73 fd 79 3f ba 56 5c 3f 50 c1 7c 3f 92 43 8f 3f
       0.9765236 0.86069834 0.9873247 1.1192496
000020 e7 c9 5e 3f 5c d3 7b 3f 47 94 81 3f fb b2 82 3f
       0.8702683 0.98369384 1.0123376 1.021087
000030 cd c4 8d 3f 79 29 58 3f 54 eb 85 3f 20 e9 81 3f
       1.1075684 0.8443828 1.0462441 1.0149269
000040 ae 9e 8b 3f 23 03 51 3f 5c bc 50 3f b5 fe 5c 3f
       1.09078 0.8164541 0.81537414 0.8632615
000050 b7 ba 88 3f 29 11 77 3f 1e 88 7d 3f cd 2d 81 3f
       1.0681981 0.9651056 0.99035823 1.0092102
000060 72 45 51 3f d2 1b 87 3f 8f f0 70 3f 4f 2c 7b 3f
       0.8174659 1.0555365 0.94117063 0.98114485
000070 58 61 70 3f e5 b9 83 3f 31 6b 84 3f fa 17 6f 3f
       0.93898535 1.0291106 1.0345212 0.9339596

batchNorm1.bias f4 [32]
000000 2d a5 bc 3e c1 68 9e 3c 3a 08 88 3e c8 89 77 be
       0.3684477 0.01933706 0.26568776 -0.24173653
000010 c3 04 1c 3c 7c b7 0f be 14 ec ae 3d 2f 4b bd 3e
       0.00952262 -0.14034837 0.08541122 0.36971423
000020 74 04 bc bd 8f df 63 bd 2d 9a 93 3d e1 95 37 3d
       -0.09180537 -0.055633124 0.07207141 0.04482067
000030 20 72 c1 3e 72 34 b0 bd ca 6b be 3d 19 a5 2d 3d
       0.37782383 -0.08603753 0.09297903 0.042393778
000040 2c ab ca 3e 89 b9 16 be 58 48 0f be 26 11 89 3c
       0.3958372 -0.14719214 -0.1399244 0.01673181
000050 80 c4 86 3e fd de 73 3d 19 db e2 3d a9 23 70 3e
       0.26321793 0.05953883 0.11076946 0.23451103
000060 4b 28 ca bd a6 54 a6 bd 0e d5 4c bd 5e ab a4 3d
       -0.098709665 -0.08121614 -0.050007872 0.08040498
000070 20 89 1b 3c d0 2f 0a 3e 47 d9 41 3e c6 05 9c 3c
       0.009493142 0.13494802 0.18930541 0.019045722

batchNorm1.running_mean f4 [32]
000000 2f 81 93 bd 50 72 f0 3d d0 bf b8 bc af 6b 1c be
       -0.07202374 0.117405534 -0.0225524 -0.15275453
000010 f4 0e 3e be e1 45 a8 bd 9d d2 33 be 62 16 33 3e
       -0.18560392 -0.08216453 -0.17560811 0.17489007
000020 b8 9b de bd d7 da 3f bb b3 a2 bc 3d 70 42 f6 3a
       -0.10869545 -0.0029274726 0.0921072 0.001878811
000030 41 55 3f 3e 60 60 3f 3d 86 12 5e 3d da 43 45 3e
       0.18684866 0.04672277 0.054216884 0.19264165
000040 ac 7c 89 3d 3f de e8 3d 2c 9f 16 be 7b 77 3f 3e
       0.067132324 0.11370515 -0.14709157 0.18697922
000050 80 21 dd bd 35 da 6f 3d 62 68 62 3d 61 f6 47 3e
       -0.10797405 0.058557708 0.05527533 0.1952758
000060 d7 8f 45 be 8e 93 06 3d 96 9a 10 be 11 50 36 3d
       -0.19293152 0.032855563 -0.1412147 0.04450995
000070 1b 3b f7 3d 77 06 1c 3e d1 dc e5 3d dc 7a 02 be
       0.1207182 0.15236841 0.11223758 -0.1274218

batchNorm1.running_var f4 [32]
000000 66 26 b3 3e 0c a3 c1 3f 49 0a 30 3e 0c d4 9e 3f
       0.34990233 1.5127883 0.17191423 1.2408462
000010 2d 44 13 3f 46 22 b9 3e 0a 42 19 3e ae 48 14 3e
       0.57525903 0.3615896 0.14966598 0.1448085
000020 2b 27 f1 3e 97 2f 09 3e fd 34 ac 3e ec 01 6c 3f
       0.47100195 0.1339706 0.33634177 0.9219043
000030 b0 d6 6a 3e ee 85 3d 3f 6a 30 d5 3e 65 68 7f 3e
       0.2293346 0.74032485 0.416385 0.24942167
000040 2b 60 79 3e da ea ee 3f b8 88 f5 3e f3 1c 03 3f
       0.24353091 1.8665421 0.4795587 0.5121605
000050 db c0 81 3e f8 16 9d 3e a6 3c 5e 3e 25 d4 32 3e
       0.2534245 0.30681586 0.21702823 0.17463739
000060 d6 96 81 3f 62 03 7e 3f 51 da ce 3e c6 2f fc 3e
       1.0124156 0.9922391 0.40400937 0.49255198
000070 c3 dd 65 3e 49 e1 c2 3e 15 c3 4c 3e f4 ec 6a 3e
       0.22447877 0.38062504 0.19996293 0.22941953

conv2.weight f4 [32, 32, 3, 3]
000000 cb 4b cb 3c 96 7a cd 3c f1 43 91 3d 83 55 3f 3d
       0.024816414 0.025082868 0.07093037 0.04671241
000010 de 2c bf 3b 0b 52 35 3d b6 14 95 3d 64 ef d7 3c
       0.005834206 0.044267695 0.07279341 0.026359268
000020 c8 5e 72 3d 79 d0 cc bd 2c f5 a3 bd 12 95 10 3c
       0.05917242 -0.100007005 -0.08005747 0.008824604
000030 61 be 55 bc 58 39 84 bd 38 d2 19 3d d2 74 6d bd
       -0.013045878 -0.0645625 0.037553996 -0.057972737
000040 ee 4c e7 bc 9e 60 5f bd f5 1a 56 bd ed 32 f6 bc
       -0.028234925 -0.0545355 -0.052271802 -0.03005358
000050 ba 3b 57 3d bf e9 85 bd e2 9a 91 bb 42 6b 47 3c
       0.052547194 -0.06538724 -0.0044435123 0.012171568
000060 0c 55 40 3d fe 80 6d 3d 3b 24 b6 bc 09 53 1f 3d
       0.046956107 0.057984345 -0.022234073 0.038897548
000070 b6 1b 92 bc 5d c1 94 bc 3a f9 0a 3d e3 e6 39 bd
       -0.01783548 -0.018158609 0.033929087 -0.045386206
000080 4b 9e e9 3b 37 a8 1e bd ae 54 9c 3b 86 28 4b bd
       0.0071294657 -0.03873464 0.004770837 -0.049599193
000090 bd 0a 47 bd a4 cd 2d bd af 87 7b bd 7a 60 1a bd
       -0.048594225 -0.042432442 -0.061408695 -0.037689663
0000a0 1f 1d 4c bd 23 4e f4 ba f2 46 78 bd 2b 7c db bc
       -0.04983246 -0.0018639009 -0.060614534 -0.026792606
0000b0 98 29 ab 39 b7 17 47 3c 5e 14 32 3b 8a 34 38 3d
       0.0003264665 0.01215165 0.0027172784 0.04497198
0000c0 6e ea 71 3c e2 47 a0 3d 49 ee 28 3d fb 9d 29 3c
       0.014765365 0.078262106 0.04124287 0.010352607
0000d0 eb 33 fb 3d 57 9f f8 3b 4a 3f 3e bc bf 8c c8 3b
       0.12265762 0.007587354 -0.011611769 0.006120294
0000e0 8e 87 57 bd b5 cc 88 bd 4c 72 df bc da a0 15 bb
       -0.05261951 -0.0667967 -0.02727618 -0.002283147
0000f0 d1 23 f3 bb 81 08 40 bd 85 40 8e bc 7b 9a 0b bd
       -0.007420041 -0.04688311 -0.01736475 -0.03408287
000100 fe 4b 8e bc 87 74 30 3b e4 47 fe bc 5c 8d d8 bb
       -0.01737022 0.0026924924 -0.03104014 -0.006608648
000110 cd 4a 1f bd 73 18 84 3c 49 e6 78 3d d8 5d 88 3c
       -0.038889695 0.01612494 0.060766492 0.01664631
000120 40 c1 8f bd 98 14 9b 3c ca aa 04 3d 3d f4 28 3b
       -0.070192814 0.018930718 0.03238944 0.0025780343
000130 f3 f6 2a bb bf 09 07 bd 7f 9f 96 bd f5 cb 26 3c
       -0.0026087135 -0.03296828 -0.0735464 0.010180463
000140 b1 e7 d8 bc d2 dd 53 3c 88 90 23 bd 0b c9 db 3b
       -0.026477667 0.012931304 -0.039932758 0.006707316
000150 b3 5f a2 3c 46 40 3d 3d 6e 33 e2 3c 25 16 84 3d
       0.019821024 0.046203874 0.027612414 0.06449536
000160 47 c8 b9 bc 17 73 d6 3c 5a 28 5e 3d 55 83 a2 3d
       -0.022678507 0.026177926 0.0542377 0.07935206
000170 ec 79 9f 3d 38 4b 1c ba a0 60 bb 3d 44 00 0b 3d
       0.077869266 -0.0005962136 0.09149289 0.0339358
000180 90 16 e4 bb 6c 03 4f 39 7e 77 98 bd 74 0b 84 bd
       -0.0069606975 0.00019742333 -0.07444666 -0.06447497
000190 f2 93 8e bd 14 95 1f 3d 77 fb 57 bd 15 05 53 bd
       -0.06961812 0.03896053 -0.05273005 -0.05151852
0001a0 ab 8a 27 bb 35 34 24 bd e9 c8 bf bc 14 27 dc bc
       -0.002556483 -0.04008885 -0.023411231 -0.026874103
0001b0 21 19 00 bd cf 4e 78 bb 2a a1 bb bc 15 3e 54 3d
       -0.031273965 -0.003788877 -0.022903997 0.05181702
0001c0 81 1c 6a bc d8 98 97 bb f3 61 94 bc 77 01 60 3d
       -0.014289022 -0.0046263747 -0.018113112 0.054688897
0001d0 d7 98 57 bb a8 bb 34 bc ae 44 62 bc 35 4a 43 bd
       -0.0032897496 -0.011031069 -0.01381032 -0.04767819
0001e0 13 4a 2b bd 31 05 2d bd 01 41 3d bd 72 d8 a8 3c
       -0.04181869 -0.04224128 -0.04620457 0.020611022
0001f0 b9 8e 8b 3c e4 69 e1 3b c1 ae 2f bd f5 d2 76 3d
       0.017035829 0.006879078 -0.042891268 0.060259778
000200 b7 25 5e 3d 07 5f 4b 3d 1a ac ae 3c 54 e9 41 bc
       0.054235186 0.049651172 0.021322299 -0.011835415
000210 a5 8f 18 3e 9c 9e 8d 3c 1e ce 05 bd 7a f5 28 bd
       0.14898546 0.017287545 -0.03266727 -0.04124973
000220 24 b9 53 3c 5a c8 34 3d 27 94 8c bd d0 8c 8e 3c
       0.012922559 0.044136383 -0.06864195 0.017401129
000230 32 aa 21 bd cc c2 fa bc bd 2f fc bc 54 5d a6 bc
       -0.03946895 -0.030610465 -0.030784482 -0.020308174
000240 25 af 9c bb f6 52 3a bd e9 dd 79 bd b1 cb 47 bd
       -0.004781621 -0.045489274 -0.061002646 -0.04877824
000250 0c 3b 7c bd 91 46 99 bd 3c f0 c2 bb 27 7e 6e bd
       -0.06157975 -0.074841626 -0.0059490483 -0.058225777
000260 30 e5 10 bd 41 a5 21 3d 98 38 97 bb ca eb 9d bc
       -0.03537482 0.03946424 -0.004614901 -0.019277472
000270 9d 96 5d 3c 89 3e 87 3d 07 71 fb 3c 66 73 75 3d
       0.013524679 0.066037245 0.030693544 0.059924506
000280 98 e1 1b 3c 5a 4d 11 bc 40 57 0b bc ed 74 00 bd
       0.009514235 -0.00886854 -0.008504689 -0.03136151
000290 79 75 79 bd 8c a5 fa bb fe e6 8c 3c fa a2 9b bc
       -0.060903046 -0.0076491293 0.01719999 -0.018998612
0002a0 ce 63 60 bc fc 97 a4 3c 70 a0 93 3b 5c 56 9d 3c
       -0.01369567 0.020092003 0.0045052096 0.019206218
0002b0 51 af 1d bd 05 be 2d bd 2a 9e e8 bc bd 1b 67 bd
       -0.038497273 -0.042417545 -0.028395731 -0.056422938
0002c0 e0 39 2e 3d c8 2d 71 3c 5c d6 a6 bd 41 57 0f 3d
       0.042535663 0.014720388 -0.081463546 0.03499532
0002d0 d0 78 00 ba af 13 1a bd 58 f1 fe bc e4 b7 89 bd
       -0.0004900815 -0.037616428 -0.031120941 -0.067245275
0002e0 e9 ac 8d bd 45 67 b7 bd 92 34 93 bc 91 3c 4e bd
       -0.069177456 -0.08955244 -0.017969403 -0.05035073
0002f0 3e 6e 36 bd b9 47 4e 3d 4c 3f ea 3c e5 39 32 bc
       -0.04453873 0.05036137 0.028594635 -0.010878061
000300 47 bf 17 bd 0f f8 18 3d 41 9e 4b bc d9 8a 1c 3c
       -0.03704765 0.037345942 -0.012427867 0.009554588
000310 00 80 09 bd 5c 4d 46 3d d5 9d 25 bd c0 97 08 bc
       -0.033569336 0.04841362 -0.040433723 -0.008336961
000320 01 42 be 3a f5 dc 0a bd 11 98 08 bd 23 00 07 3d
       0.001451552 -0.033902127 -0.033348147 0.032959115
000330 79 eb 30 3d 5c 27 8e 3b 7e f3 0e 3d 11 cc aa bc
       0.043193314 0.004338188 0.03490018 -0.02084926
000340 5c 03 84 3b 0b a0 7b bd 44 6f 9e bc e1 54 47 bd
       0.004028721 -0.061431926 -0.019340165 -0.04866493
000350 20 d4 17 bd 54 25 65 bd 40 a1 55 bd dc eb 46 3d
       -0.037067533 -0.055943802 -0.052155733 0.048564777
000360 97 ab 5e bd d6 a1 eb 3c ac 29 86 3d 37 42 55 3d
       -0.05436286 0.028763693 0.06550917 0.0520651
000370 cd 98 96 3d 83 b9 69 3d db 51 20 bd 6b cf ea 3c
       0.07353363 0.057061683 -0.039140563 0.028663358
000380 32 3d fc 3c f2 19 80 bd f9 0e 39 bc c2 64 5b 3d
       0.030790899 -0.06254949 -0.011295074 0.053562887
000390 2c ee 32 3d 58 2b 8d bb c8 2b c0 bc 6b 88 ec 3b
       0.04368417 -0.0043081455 -0.023458377 0.0072184107
0003a0 a2 fb 94 bc c5 22 30 bd 48 a3 9f ba 35 c1 a0 3d
       -0.018186394 -0.04300191 -0.0012179399 0.07849351
0003b0 11 72 88 3d 7d 47 d1 bc 36 26 56 3b b8 e2 92 3d
       0.066623814 -0.025546784 0.0032676584 0.071721494
0003c0 c4 ac d4 3d e5 09 f3 3c f1 d4 93 3b 69 29 b3 3b
       0.10384515 0.029667804 0.0045114686 0.005467583
0003d0 45 a7 88 3d 10 dc f9 3d 7d 02 be 3d b4 d8 7b 3d
       0.06672529 0.12200177 0.09277818 0.06148596
0003e0 1c ed 0b 3d bf f3 c1 3d d2 e2 7c 3d a1 a2 7b 3d
       0.034161672 0.09470319 0.06173975 0.061434392
0003f0 9e c2 9c 3d 1a d4 6b 3d 4b 3d f0 bb 0d 63 ab 3d
       0.07654308 0.057575323 -0.0073315254 0.08368502

conv2.bias f4 [32]
000000 81 c5 07 3c cf 08 4d bd 58 9b be bb 38 7c cf 3b
       0.008286835 -0.05005723 -0.0058168583 0.0063319467
000010 7a ca c2 3c f5 80 46 3d dd 22 25 bd 0d 76 4c 3c
       0.023778189 0.048462827 -0.04031645 0.012479317
000020 d6 61 08 3d 9a c5 1d 3d f8 d7 60 bc f6 0e b9 bc
       0.03329643 0.038518526 -0.013723366 -0.022590142
000030 e1 da e3 bc 9c 71 e8 3c aa 9a e6 3c 94 f2 e1 3a
       -0.02781433 0.028374486 0.028149921 0.0017238432
000040 f4 e3 42 bd df e0 b6 bb b4 fc 29 3d 2a 69 c1 3c
       -0.047580674 -0.005581006 0.041500762 0.023609716
000050 c8 34 92 bb d2 d6 05 bd 5e 56 1d 3d ba 31 0b 3d
       -0.0044618584 -0.03267557 0.038412444 0.03398297
000060 b1 e0 43 3d ef 45 6e bd a3 e9 f3 bb c7 a8 53 3d
       0.047821704 -0.058172163 -0.007443623 0.05167463
000070 37 08 58 3b 90 ad fa 3c 24 af 44 bd d1 81 49 3b
       0.003296388 0.03060034 -0.04801859 0.0030747543

batchNorm2.weight f4 [32]
000000 59 4c 77 3f a8 25 88 3f e8 c4 81 3f a3 7e 72 3f
       0.9660087 1.0636492 1.0138216 0.9472448
000010 93 58 51 3f 2d fa 6a 3f bc 8f 85 3f d4 ba 88 3f
       0.8177578 0.9178799 1.0434489 1.0682015
000020 35 95 64 3f e5 a7 7c 3f 41 50 86 3f 16 d7 5f 3f
       0.8929017 0.98693687 1.0493242 0.8743757
000030 6b e4 81 3f 60 18 69 3f 66 de 74 3f 5a 8c 64 3f
       1.0147833 0.9105282 0.95651853 0.8927666
000040 7a b5 90 3f e2 ea 69 3f a0 19 7a 3f 16 17 b1 3f
       1.1305382 0.9137403 0.9769535 1.383517
000050 b4 fe 6a 3f 38 1a 91 3f 4c 94 6e 3f 36 9b 72 3f
       0.91794896 1.1336126 0.93195033 0.94768083
000060 31 8c 99 3f 9e 30 7b 3f 54 cb 8d 3f 2d 9b 63 3f
       1.1995908 0.9812106 1.1077676 0.88908654
000070 2f 9a 62 3f ba a5 78 3f 78 b5 5d 3f cd 2a 51 3f
       0.88516515 0.9712788 0.86605024 0.81705934

batchNorm2.bias f4 [32]
000000 9a e1 ce bd a9 3e 31 be e9 ae d7 bd f9 18 ae bd
       -0.10101624 -0.17309059 -0.10531408 -0.08500857
000010 06 20 07 be 44 63 13 be 03 be 64 be 43 f2 14 be
       -0.1319581 -0.14393336 -0.22338109 -0.1454554
000020 0e 69 b7 bd 2f ab 06 be 1a cf 50 be bc cf 42 be
       -0.089555845 -0.13151239 -0.20391503 -0.19024557
000030 dd a4 13 be 05 c2 b9 bd b3 05 88 bc bf 87 b6 bd
       -0.14418359 -0.090702094 -0.01660428 -0.0891261
000040 fe bf b3 bd b5 fb 48 be 34 f7 aa bd 68 ab 59 be
       -0.08776854 -0.19627269 -0.083479315 -0.21256793
000050 91 2a 4b bb b7 b2 3a be 20 2f 42 bd ac 3a e1 bd
       -0.0031000713 -0.18232237 -0.047408223 -0.10997519
000060 7c cb 85 be c5 4f f6 bd 52 ac e8 bd 27 ed ab bd
       -0.2613181 -0.120269336 -0.113609925 -0.083948426
000070 a4 1a 1f be 47 92 df bd 93 56 25 be 73 e4 1b be
       -0.15537506 -0.10916572 -0.16146307 -0.15223865

batchNorm2.running_mean f4 [32]
000000 e2 23 b2 be b6 37 9e be 44 1d 29 bf 53 46 46 bf
       -0.34793 -0.3090188 -0.6606028 -0.77451056
000010 9c 61 bc 3f cc 17 13 3d 64 e8 b6 be 0d c2 d5 be
       1.4717288 0.035911366 -0.35724175 -0.41749611
000020 c3 ba 6b bf ea 86 68 be 01 bc 87 be 77 35 a3 3f
       -0.9208185 -0.22707716 -0.26510623 1.2750691
000030 03 e5 66 bf 44 ba b9 be 20 71 c3 bf 0f 50 c6 be
       -0.90193194 -0.36274922 -1.5268898 -0.38732955
000040 53 74 5c bf 42 20 1f 3e db 1f 70 be 95 f8 26 bf
       -0.86114997 0.15539649 -0.23449652 -0.65223056
000050 07 58 c3 bf 66 3e 3c bf 6e 4a 9c bf 4e 4a 08 bf
       -1.5261239 -0.7353271 -1.2210214 -0.5323838
000060 40 27 14 bf cb ae 3e bf 5f 22 c3 be e0 d8 27 bf
       -0.5787239 -0.7448546 -0.3811216 -0.655653
000070 16 2f b0 be 1e db 98 be bb 35 56 3d f1 97 41 3f
       -0.34410924 -0.29854673 0.052297335 0.7562247

batchNorm2.running_var f4 [32]
000000 08 c7 ce 3f a7 af 97 3f d2 a6 63 3f fe 12 11 3f
       1.615449 1.185048 0.8892642 0.56669605
000010 d9 5f ed 3e dc 6e 73 3f 8f a4 c3 3f 98 5f 16 40
       0.46362188 0.95091033 1.5284594 2.3495846
000020 43 65 ab 3f c1 9c 74 3f 26 77 8e 3f 76 f8 94 3f
       1.3390278 0.9555169 1.1130111 1.1638324
000030 2e 93 d3 3f de d2 69 3f 0d 1c 4b 3f 8c e6 5d 3f
       1.6529291 0.9133738 0.7933968 0.8667991
000040 22 f2 05 40 88 5c 9a 3f 56 d4 5f 3f 66 db 97 40
       2.0929036 1.2059488 0.87433374 4.745532
000050 90 90 81 3f 31 6b a1 3f 98 64 74 3f f6 be 98 3f
       1.0122242 1.2610837 0.95465994 1.1933277
000060 79 d7 87 40 f7 af 7e 3f 1f 55 cf 3f b2 83 87 3f
       4.245053 0.9948725 1.6197852 1.0587065
000070 f9 08 1b 3f 8b eb 45 3f f0 86 66 3f c0 f4 02 3f
       0.60560566 0.77312535 0.9004965 0.5115471

conv3.weight f4 [64, 32, 3, 3]
000000 b0 a8 2b 3d 08 54 2a bc f5 48 08 3d 93 ab 96 3c
       0.04190892 -0.010396011 0.033272702 0.01839236
000010 14 38 86 3d f2 31 81 3d e6 41 aa bb 22 31 00 3c
       0.06553665 0.063083544 -0.005195844 0.007824214
000020 a7 a7 57 bd 79 38 c9 bb 40 64 dc ba ab 7e 23 3c
       -0.05265012 -0.0061407653 -0.0016814545 0.0099789305
000030 da 5c 5f bb 76 75 37 3d 32 78 4b 3d f3 05 74 bd
       -0.0034082443 0.044789754 0.049675174 -0.059575986
000040 8f 12 4a bb 8c 7f 0d bd 18 42 9c 3d 36 23 55 bd
       -0.0030833816 -0.034545466 0.07629794 -0.052035533
000050 88 c5 94 bd d4 17 c5 3c 4e c6 18 bc dd d6 84 bd
       -0.072642386 0.024059214 -0.009324623 -0.064862944
000060 b0 f0 e9 bd 9d 01 be bd 71 51 db bd 1c 25 83 3d
       -0.114228606 -0.092776515 -0.10708893 0.064035624
000070 fc 88 77 bc 48 6d 79 bc ae 6f 4c 3d 92 31 f3 bb
       -0.015108343 -0.015223809 0.049911194 -0.0074216807
000080 0e a3 99 bb c4 f1 4a 3d cc 56 5a bc 66 74 0c 3d
       -0.004688627 0.049546972 -0.013326358 0.034290694
000090 8e 0a 67 bd a1 2b 9b bd e2 8a 31 bd 98 17 40 3d
       -0.05640655 -0.07576681 -0.04334534 0.0468975
0000a0 94 fc c1 bc f1 90 32 bd f5 8c 2b 3d c3 e5 c4 bb
       -0.023680009 -0.04359526 0.041882474 -0.006008835
0000b0 72 38 ab bb a3 fa 96 3d 01 87 17 bc 00 3a 3d 3d
       -0.0052252347 0.07372024 -0.009248496 0.04619789
0000c0 97 9c bc bc 42 3a a9 bd 95 26 91 bd 15 5c 22 3d
       -0.023023887 -0.08263065 -0.07087437 0.039638598
0000d0 30 61 34 bd c3 b2 a1 bc 24 ae 81 3c 6b 89 89 bb
       -0.044037998 -0.01973856 0.015830107 -0.0041972897
0000e0 32 db 1a bd fb 09 62 3c d8 ba 3f 3d 2c 05 6c 3b
       -0.037806697 0.013796325 0.046809047 0.0036013825
0000f0 d7 a2 82 bd 71 7a 1b bc 0a 0d ff bc 7b 90 4f bd
       -0.063787155 -0.0094896415 -0.031134147 -0.050674897
000100 31 61 27 bd d0 1b 73 3d 47 4a ba bd 37 92 09 be
       -0.040864173 0.059352696 -0.090961985 -0.13434683
000110 b3 58 a0 bd f5 da e4 bd ac 6a f9 bd 48 d2 37 bd
       -0.07829418 -0.11174575 -0.12178549 -0.044878274
000120 a9 77 09 bc 28 2c 8b bd 52 38 5c bd bf b1 78 3d
       -0.008390346 -0.067955315 -0.05376465 0.060716387
000130 06 91 d2 bc cd ff ac 3c d1 4b e4 3b 59 4d 45 3d
       -0.025703918 0.021118069 0.006967046 0.048169468
000140 e6 8f 13 bc e7 a6 29 bd fc 1b ba bd 4a 4c 9f ba
       -0.009006476 -0.041418936 -0.09087369 -0.0012153473
000150 c5 02 c2 3c 13 b2 4d bc 3e 17 83 bd 8e 74 55 3d
       0.023682961 -0.012554663 -0.064009175 0.05211311
000160 ea bb 8a bd 1c 0f 59 3b 00 f5 74 3c 1f 29 e0 bc
       -0.06774123 0.0033120578 0.014950991 -0.027363358
000170 49 eb c4 bb f4 b4 85 3c 53 e3 a4 bd 13 21 60 bd
       -0.0060094935 0.016321637 -0.08051171 -0.054719042
000180 d4 99 9e bd 79 18 c6 bd e4 47 d5 bc 3f 67 ea 3a
       -0.07744184 -0.096726365 -0.026035257 0.0017883553
000190 e9 c1 14 3b cf 1f 61 3c 4e e3 49 bd 8f f2 b3 bd
       0.0022698587 0.013740494 -0.04928904 -0.08786499
0001a0 2f 1c 22 3d 49 12 9a 3d 62 d7 96 bc ce 23 f7 bb
       0.03957766 0.07523019 -0.01841325 -0.00754211
0001b0 a7 5c c8 bc b5 a0 53 3d 28 4b 0e bd 92 c7 7a bd
       -0.024458243 0.051666934 -0.034739643 -0.06122548
0001c0 7f 8d 29 3c 5b 37 b1 3c d2 bd bf bd 29 d9 0d 3b
       0.010348677 0.02163284 -0.09362377 0.002164433
0001d0 55 4f 6a ba fc ec c7 3c 73 61 b8 bc be a4 8e 3b
       -0.0008938213 0.024404995 -0.022507405 0.004353135
0001e0 0e 22 90 bd e9 0e 49 3c 86 1d 27 3d fe 82 71 3d
       -0.070377454 0.012271621 0.04079964 0.058962815
0001f0 23 9f e1 3c bb 34 f3 bc 30 a3 37 bd 80 40 c6 bc
       0.027541703 -0.02968823 -0.044833362 -0.024200678
000200 dd 62 2c 3d 7a 27 97 bb 40 ce 80 bc 7f d2 f9 3b
       0.04208647 -0.0046128603 -0.015723348 0.00762397
000210 0a b7 c9 bc c8 dd a5 bb 8c 9c b7 3c d1 5e 2a bd
       -0.024623413 -0.005061839 0.022413515 -0.04159433
000220 ae ca 78 3c 16 42 7f 3d ee af 56 bd 0b 1c 9d bd
       0.015185041 0.062318884 -0.052413873 -0.076713644
000230 2e 51 1e bd 96 5d 63 3d bb 0f ed 3c c9 e8 59 3d
       -0.038651638 0.055509172 0.028938165 0.053200517
000240 6a b0 d3 3b fe c8 10 bd b9 85 72 3d 25 de 35 bd
       0.006460239 -0.03534793 0.05920956 -0.044401307
000250 fe eb af bd f3 0b ab 3c 62 23 85 bd de 4a c2 bd
       -0.08589934 0.020879721 -0.06500889 -0.09486936
000260 bd fd f8 3c d0 02 f5 3c 10 4b b0 bc c8 74 5b bc
       0.03039443 0.029908568 -0.021520168 -0.013394542
000270 20 ae b7 3d ec c9 80 3d 22 dc 67 bd 0a 5c 44 bc
       0.089687586 0.062885135 -0.05660642 -0.011984834
000280 44 fe 9b bd 5b cf 58 bd 39 46 c2 3d bc 80 06 bb
       -0.07616857 -0.052932125 0.0948605 -0.002052351
000290 60 92 60 bd 2e 36 1c 3d a9 27 36 3d ad 87 7a bd
       -0.054827094 0.038137607 0.044471417 -0.061164547
0002a0 44 7c 1c 3b ce a7 84 bb e4 ae bc bd 36 fd ca 3c
       0.002387778 -0.004048324 -0.09213045 0.024778944
0002b0 8d 5f 9f 3c ae db 94 3c 41 af 4e bc ed 45 b6 3d
       0.019454742 0.018171158 -0.012615026 0.08900056
0002c0 70 26 c9 3c 9b 23 45 bd a3 82 63 3c 8f 69 8d 3c
       0.024554461 -0.04812966 0.013886127 0.017262248
0002d0 be 9a 1c bd bb 07 3e bd cf de 3d bc c6 8a 70 bd
       -0.03823351 -0.04639409 -0.011588766 -0.058726095
0002e0 2d e6 23 bd fb db 28 3c 68 de 9c bd 08 76 cd bd
       -0.040014435 0.010306354 -0.07659608 -0.10032278
0002f0 1e c2 4b bb bb 71 1e 3c 8c 24 94 3b 8e 8d 1b bd
       -0.0031091045 0.00967067 0.0045209583 -0.037976794
000300 b8 0b c8 3b 1c 93 e0 bb e7 19 b2 bc 6e 3d 64 3d
       0.0061049126 -0.0068534743 -0.021740867 0.055722646
000310 1d 9a 36 3c e3 28 6d 3c 60 23 32 bd 6a f9 2c 3d
       0.011145142 0.01447508 -0.043490767 0.042230047
000320 08 3d e5 bc 5e f3 b7 3b c7 b4 ea 3c 3e a2 6a bc
       -0.027983204 0.0056137284 0.028650654 -0.014320908
000330 9b 9a 8b bd 27 25 d2 3a 78 11 54 bd b0 17 c7 bd
       -0.06816598 0.0016032801 -0.051774472 -0.09721315
000340 a5 2c a7 bd b0 db 65 3d a3 9f d7 bc 77 06 9d bd
       -0.08162812 0.056117713 -0.026321238 -0.07667249
000350 02 63 dd bc 4b ec 2e 3c 80 94 40 bd ab 24 8c ba
       -0.02702475 0.010676454 -0.04701662 -0.001069208
000360 49 f3 4c bc 05 e3 d9 bb 87 db f7 3c 24 e9 d4 3d
       -0.012509176 -0.0066493773 0.030256046 0.103960305
000370 20 cc 13 3d f2 2c cb 3a 56 a4 54 3d 43 de d2 bc
       0.03608334 0.0015501066 0.051914535 -0.025740748
000380 36 dc 21 bd 29 9d 04 bd 30 3f 38 bd e4 d5 7e 3c
       -0.03951665 -0.032376442 -0.044982135 0.015553925
000390 a7 ac c6 bc 47 2a ad bd d4 b6 05 bd d1 1e 59 bd
       -0.024252249 -0.084553294 -0.03264506 -0.053007904
0003a0 b3 30 87 3c 07 92 41 bd c0 e7 94 bc c5 17 09 bc
       0.016502714 -0.047258403 -0.018176913 -0.0083674835
0003b0 f1 21 28 3d 39 29 a5 bc d3 4a 9e bd 3e 16 9f 3c
       0.041047994 -0.020161258 -0.07729115 0.019419786
0003c0 55 10 ef bb 68 3c 4d 3c ca 9b 94 3c 08 a8 4f bd
       -0.007295648 0.012526609 0.018140692 -0.050697356
0003d0 eb 27 2c bc 37 55 b5 bb 10 25 49 bc ec 69 40 ba
       -0.010507564 -0.00553384 -0.012276903 -0.00073400023
0003e0 74 5d dc 3b 36 b0 70 bc bc 06 b9 bc e6 49 a2 bc
       0.0067250077 -0.014690449 -0.022586219 -0.019810628
0003f0 50 f6 93 3c 75 de 19 3d 0b ab 4b bc 43 e1 2b bd
       0.018061787 0.037565667 -0.012430917 -0.041962873

conv3.bias f4 [64]
000000 b8 41 fc 3c 3b b2 f6 3c 9e d0 85 3c ee 8e 4d 3c
       0.030793056 0.030114284 0.016334828 0.012546284
000010 ba b3 36 bd 66 dc f7 bb e6 e1 84 3c 9a d3 b3 3c
       -0.044604994 -0.0075641153 0.016220998 0.021951485
000020 61 6b df 3a 04 cd 69 3d 3f 21 47 3d 01 e0 63 bd
       0.0017045551 0.057080284 0.04861569 -0.05563355
000030 ed 44 45 bd 4e 8b 4d 3d 77 69 09 bc 79 85 1e 3d
       -0.048161436 0.05018168 -0.008386961 0.03870151
000040 1e 43 31 bd fd 5e 58 3d 48 e5 ab 3c ee 56 55 bb
       -0.0432769 0.052824963 0.020983353 -0.0032553035
000050 b1 e6 da 3b 2c ca 2c 3d 01 29 f3 3c e0 08 45 3d
       0.0066803326 0.042184994 0.029682638 0.048104167
000060 a6 11 d7 bb a8 42 94 bc 3b 37 31 bd fc b5 3f bd
       -0.006563383 -0.01809819 -0.043265563 -0.046804413
000070 45 8a 07 3c b7 55 17 3d e3 d0 5a 3d be 43 3d bc
       0.008272712 0.03694698 0.053421866 -0.0115517955
000080 85 18 f0 3c 04 b1 4a bd 6c 4f ec bc 6c 3a f2 3b
       0.029308567 -0.04948522 -0.028846465 0.0073922183
000090 b6 4d 3c bc 09 15 2c bd cb af e2 bc 00 63 0b bd
       -0.011493137 -0.04201225 -0.027671715 -0.03402996
0000a0 24 95 6a bc 35 21 9e bc c4 21 4f bd a1 4e 47 bd
       -0.014317784 -0.019302944 -0.05056931 -0.04865897
0000b0 48 19 41 3d 5a b0 2c 3c 33 b3 fc 3c e3 b3 be 3c
       0.04714325 0.010540092 0.030847168 0.023279136
0000c0 29 b2 22 bd 38 bf 30 bc a6 3a 4e bd 32 09 f1 bc
       -0.039720688 -0.010787778 -0.0503489 -0.02942333
0000d0 fa 9f 90 bb df cd 66 bd 2d 36 08 bd f2 df 46 bd
       -0.004413602 -0.056348678 -0.03325479 -0.048553415
0000e0 9f d9 44 bd d1 2d 80 3c f8 04 12 3d ab 46 dd 3c
       -0.048059102 0.015646847 0.03564927 0.027011236
0000f0 9b 32 87 bc 45 d3 46 3d 2d ff e2 bc 65 bb 84 ba
       -0.016503623 0.048541326 -0.027709568 -0.0010126649

batchNorm3.weight f4 [64]
000000 77 75 83 3f 19 17 80 3f 79 57 81 3f a4 6c 7b 3f
       1.0270222 1.0007049 1.010482 0.9821265
000010 b7 f9 81 3f 30 06 74 3f cf 90 6c 3f d6 03 85 3f
       1.0154332 0.9532194 0.9240846 1.0391796
000020 e4 85 5f 3f 35 98 79 3f b8 87 74 3f f4 1f 82 3f
       0.87313676 0.97497874 0.9551959 1.0166001
000030 0f 00 86 3f f7 cb 6c 3f bc 82 84 3f 9a 77 7c 3f
       1.0468768 0.92498726 1.0352397 0.9862
000040 a4 2a 82 3f 69 44 86 3f 7d 2b 81 3f e3 f6 65 3f
       1.0169263 1.0489627 1.0091397 0.89829844
000050 86 4b 87 3f 2a 4f 84 3f 9b b6 77 3f 19 88 69 3f
       1.0569923 1.0336659 0.9676301 0.91223294
000060 55 ea 7f 3f 96 da 7e 3f 17 e2 78 3f 2a b6 88 3f
       0.9996694 0.99552286 0.97219986 1.0680592
000070 bc be 8e 3f ef 01 82 3f f9 40 78 3f 6f 38 82 3f
       1.1151958 1.015684 0.9697414 1.0173472
000080 35 23 80 3f 54 b5 80 3f 23 f0 7c 3f d8 86 8b 3f
       1.0010744 1.0055337 0.9880392 1.0900526
000090 1e 70 84 3f 0b fe 77 3f 7d 88 66 3f b1 cd 81 3f
       1.0346715 0.96872014 0.90052015 1.0140897
0000a0 a4 0a 89 3f e5 31 76 3f d2 c2 84 3f da 4b 6f 3f
       1.0706372 0.96169883 1.0371954 0.93475115
0000b0 33 fb 75 3f 2c b7 85 3f 12 98 7b 3f b2 3e 7d 3f
       0.96086425 1.0446525 0.98278916 0.9892379
0000c0 ef 27 82 3f 82 ce 75 3f 3b 3d 77 3f 97 4a 83 3f
       1.0168437 0.9601823 0.96577805 1.0257138
0000d0 f9 1b 69 3f a1 bb 7b 3f d7 4f 79 3f dc cd 71 3f
       0.9105831 0.98333174 0.9738745 0.9445474
0000e0 53 7c 80 3f 21 6c 7b 3f 90 c0 6c 3f ef a2 74 3f
       1.0037941 0.98211867 0.9248133 0.95561117
0000f0 a7 79 7b 3f ee 57 75 3f af 54 89 3f 7c 46 88 3f
       0.982325 0.95837295 1.0728968 1.064651

batchNorm3.bias f4 [64]
000000 bf 36 fe bc cb dd 3b bd c5 33 88 bd f1 73 fb bd
       -0.031031964 -0.045865815 -0.06650499 -0.122779734
000010 25 1c 3b bd ec 61 99 bd d2 8a 09 be 3e 9f 59 bd
       -0.045681138 -0.0748938 -0.13431862 -0.05313038
000020 8e 56 15 be 5b 8f aa bd 1c f3 01 be e4 fb af bd
       -0.14583799 -0.08328124 -0.12690395 -0.08592966
000030 dc f2 8f bd a9 32 84 bd 0a dd bc bd fb 75 9d bd
       -0.070287436 -0.06454975 -0.09221847 -0.076885186
000040 ba 44 87 bd 35 6c 70 bd a0 e2 50 bd 23 e2 fd bd
       -0.066049054 -0.058696944 -0.050997376 -0.12396648
000050 80 58 39 bd de 2b 0e bd df 5d cd bd 10 a6 e0 bd
       -0.045250416 -0.034709804 -0.1002767 -0.10969174
000060 a3 8b 24 bd af a1 d9 bd 19 fa ca bd 63 cc de bd
       -0.04017223 -0.10626542 -0.099109836 -0.108788274
000070 7f b5 95 bd 7e f8 f1 bd 8a 81 8e bd 25 69 53 bd
       -0.07310008 -0.11814974 -0.06958301 -0.051613946
000080 14 d9 63 bd fd ae 24 be 2c 64 96 bd 74 13 93 bd
       -0.055626944 -0.16082378 -0.07343325 -0.07181445
000090 c6 55 e8 bb ca 9f 02 be 36 7a 06 be 44 76 8e bd
       -0.007090303 -0.12756267 -0.13132557 -0.06956151
0000a0 17 f6 76 bd fe 33 9a bd bc 50 27 bd 52 6c 0d be
       -0.060293283 -0.07529448 -0.04084848 -0.13810852
0000b0 5b 25 ab bd ba cf b9 bd 04 d7 b0 bd 6f 71 b0 ba
       -0.08356734 -0.09072824 -0.08634761 -0.001346154
0000c0 7f bf 02 bd 1f 8f 06 be d2 eb 03 be 76 49 27 be
       -0.031920906 -0.13140534 -0.12882927 -0.16336617
0000d0 54 13 00 be e0 49 4a 3d 96 94 97 bd f0 1a ff bd
       -0.12507373 0.04938686 -0.074013874 -0.1245631
0000e0 2a 05 72 bd 79 71 c0 bd cd 9e e4 bd 3f 69 e1 bd
       -0.059086956 -0.09396643 -0.11163101 -0.11006402
0000f0 04 1e a2 bd f7 98 04 be 1f 02 12 be fb fd 0f bd
       -0.07915881 -0.12948976 -0.14258622 -0.035154324

batchNorm3.running_mean f4 [64]
000000 d6 7e cf bf ce 90 ff be 00 d6 11 bd 66 01 31 bf
       -1.6210582 -0.49915165 -0.035604477 -0.6914276
000010 3d 2a 8e bf a1 3f d8 be 32 1a 08 3f a8 eb 8b bf
       -1.110664 -0.42236045 0.5316497 -1.0931292
000020 f0 c2 a1 3e 43 16 33 be d4 26 eb bd e3 aa ac bf
       0.31594038 -0.17488961 -0.11482015 -1.348965
000030 b0 25 ca bf 1d 9d 30 3f fc 6e a0 bc 0b 96 89 bf
       -1.5792751 0.68989736 -0.019584171 -1.0748914
000040 fa 2f 86 be d1 cd 35 bf 9a 8c 44 3e 5d b0 20 3f
       -0.26208478 -0.71017176 0.1919426 0.6276911
000050 e9 09 98 be fc b7 e6 be 37 63 8e 3e 51 ea e3 be
       -0.2969506 -0.45062244 0.2781007 -0.44514707
000060 df 66 18 bf b9 65 af be de f9 13 bf 4c dc 1e bf
       -0.5953197 -0.34257296 -0.5780314 -0.62054896
000070 0d 9b fc bf df 06 70 bf 54 f8 87 3c 35 56 33 bf
       -1.9734818 -0.93760484 0.016597904 -0.70053416
000080 55 63 19 bf 06 7f 59 bf bc d0 ad bf f6 3a 85 bf
       -0.59917194 -0.8495945 -1.3579326 -1.0408618
000090 be 27 bf be 18 43 ad 3c 4b 71 63 3f 0a d7 38 bf
       -0.37335008 0.021150157 0.88844746 -0.72203124
0000a0 1c b3 02 bf 2d f1 b6 be 58 68 d8 bf 82 3a 67 3f
       -0.5105455 -0.35730878 -1.6906843 0.9032365
0000b0 22 51 10 be 1c 9b 20 bf 96 88 89 be 44 7e 93 be
       -0.1409345 -0.6273668 -0.2686202 -0.2880727
0000c0 dc 48 53 be 81 98 3f bf 89 50 0b 3e da dd d0 3e
       -0.20633262 -0.7484208 0.1360494 0.4079426
0000d0 8b d2 88 3e 06 86 dc be ed a1 27 bf 9e 69 4b be
       0.26723132 -0.43071002 -0.65481454 -0.19864509
0000e0 9b 86 54 bf 75 12 80 bf 16 72 43 3f c7 21 c0 bc
       -0.8301789 -1.0005633 0.76345956 -0.023453606
0000f0 d6 b0 00 bf 61 41 be be 0d 76 89 bd 51 cb 07 c0
       -0.5026983 -0.37159255 -0.067119695 -2.1217844

batchNorm3.running_var f4 [64]
000000 6e b4 64 3f c2 be 1f 3f cd 6e 12 3f 01 f0 49 3f
       0.89337814 0.6240045 0.5720032 0.7888184
000010 63 43 55 3f f4 c1 b4 3e 80 72 d0 3e b8 f0 4e 3f
       0.8330595 0.35304224 0.40712357 0.8083606
000020 ec 5d 01 3f 37 9e 1c 3f 1c 4b e2 3e 4b bc 42 3f
       0.5053394 0.61178917 0.4419793 0.7606856
000030 d0 b9 62 3f 82 99 30 3f 79 60 32 3f 6a d9 45 3f
       0.8856478 0.68984234 0.69678456 0.7728487
000040 f3 f3 31 3f 5a e7 50 3f ed bb 1d 3f 32 5f d0 3e
       0.6951286 0.81603014 0.61614877 0.40697628
000050 fd 91 87 3f bb fd 2f 3f d8 22 fb 3e 1f f4 3a 3f
       1.0591427 0.68746537 0.4905002 0.7302875
000060 de ad 37 3f aa 6b 65 3f 5a 0c 26 3f 5b e3 4e 3f
       0.71749675 0.8961741 0.64862597 0.80815667
000070 f8 e4 9f 3f 46 e8 23 3f 2e 2c 10 3f e1 7c 3d 3f
       1.2491751 0.64026296 0.5631741 0.74018675
000080 5d b6 4c 3f 3c b5 54 3f b3 8f 25 3f 21 68 7a 3f
       0.79965764 0.8308904 0.6467239 0.9781514
000090 e8 e8 58 3f 17 8c fe 3e 1c 35 2b 3f 26 93 29 3f
       0.84730387 0.49716255 0.66877913 0.66240156
0000a0 dc 8d 4c 3f a5 4e 1c 3f fb 76 96 3f a2 fb 17 3f
       0.7990396 0.610575 1.175506 0.59368336
0000b0 a8 d4 d3 3e 80 6c 33 3f 8e e4 1e 3f a0 18 7b 3f
       0.4137318 0.7008743 0.62067497 0.9808445
0000c0 2f 50 0a 3f 11 17 31 3f 8b f4 fa 3e 85 2e 58 3f
       0.540286 0.6917582 0.49014696 0.84445983
0000d0 3e 39 fd 3e fc aa 89 3f a3 22 41 3f 8f ac d7 3e
       0.49457735 1.0755305 0.75443476 0.4212384
0000e0 56 1f 3d 3f 9f ca 38 3f 01 8f 08 3f 76 b7 07 3f
       0.7387594 0.72184175 0.53343207 0.53014314
0000f0 a6 24 14 3f 88 0c 22 3f 8d db 20 3f f1 03 a7 3f
       0.5786842 0.6330037 0.6283501 1.3048078

conv4.weight f4 [64, 64, 3, 3]
000000 81 26 b8 bc f1 14 27 3c fb 2b a9 bc c5 6e 7b 3d
       -0.022479298 0.010197864 -0.020650854 0.061384935
000010 9d 04 2b 3d 6e 49 79 3c 0a 9e 41 3c e1 19 a5 3c
       0.041752446 0.015215261 0.011817465 0.020153942
000020 39 02 02 bd b8 d0 14 bd b9 20 69 3c 3d 97 87 bc
       -0.0317404 -0.036331862 0.014228993 -0.016551608
000030 f2 22 6e bd be 14 2b bd 69 d9 22 3d 4a 55 5e bd
       -0.058138795 -0.04176783 0.03975812 -0.054280557
000040 63 9a 1b bc bd 8c eb 3b 1d 6c 9c 3d a5 53 64 3d
       -0.009497258 0.007188408 0.076378085 0.055743832
000050 25 a2 49 3d 49 1d 3b 3c 5e 1e fd 3b cb 02 7f 3d
       0.0492269 0.011420556 0.0077245673 0.062258523
000060 ef b3 52 3c fd 97 2a 3c a1 5b 52 3d ca a2 5f bb
       0.012860282 0.010412213 0.051356915 -0.003412413
000070 f2 c0 8d bd c1 f6 2d bd 26 a8 71 bc 65 f1 8a bd
       -0.06921567 -0.04247165 -0.014749562 -0.067843236
000080 57 6d 3b bd 0b 2b 9f 3c c8 b3 3e bd 7d 43 02 3c
       -0.04575857 0.019429704 -0.04655817 0.007950661
000090 22 4d 80 bd d7 ec eb bb ec 86 47 bc aa fb ae 3a
       -0.06264712 -0.0071998644 -0.012178164 0.0013350148
0000a0 ef d2 b4 3c 99 34 03 bd 73 54 cc bb f2 ef 59 bc
       0.022073237 -0.032032583 -0.006235653 -0.013301836
0000b0 6e c3 b8 bb 7d d7 32 3d 3d 51 b6 bc 24 f5 d6 bc
       -0.0056385314 0.043662537 -0.022255534 -0.026239939
0000c0 7f 4b 8d 3c 0c a6 18 3d c3 f5 bf 3c dd c1 ff bc
       0.017247913 0.03726773 0.023432618 -0.03122037
0000d0 39 3e 05 3d 3f b9 fd 3c 1b f4 4e 3c c3 26 23 3d
       0.032530043 0.030972121 0.0126314415 0.039831888
0000e0 e2 c6 66 bc 6a e8 8c 3b b3 9b 4a bc 0b ff aa 3c
       -0.014085503 0.004300167 -0.012366223 0.020873567
0000f0 ea 77 11 3d a9 0e 35 3d 52 4c 8a ba 6c 99 d2 3c
       0.03551475 0.044203434 -0.001055131 0.025707923
000100 ac 1b ee bc 03 cb 66 bc e0 eb 64 3c 9d ac 78 bc
       -0.02906593 -0.014086488 0.013972253 -0.015177873
000110 63 72 11 bd 40 5c a0 3c 4a 7b ed bc fa 3d 2d bd
       -0.03550948 0.019575238 -0.028989453 -0.042295434
000120 69 63 22 3c 7a 96 3a bc cc ee 36 3d 24 42 09 3d
       0.009911397 -0.0113884155 0.04466133 0.033510342
000130 57 aa 6e bc 42 bf 8f 3c eb 92 8a 3c ba 21 d7 bc
       -0.014566979 0.017547254 0.01691576 -0.0262612
000140 c0 38 d4 bc 6c ed 59 bd 58 43 50 bd 42 fa 13 bd
       -0.025905967 -0.05320494 -0.050845474 -0.036127336
000150 89 ac 03 bd 32 53 0c bd 5d 7d 05 bd e3 aa 4f bd
       -0.032146964 -0.03425903 -0.03259026 -0.05070008
000160 ed 4b 80 3b e7 d5 c4 3b 8a df 48 3d 2b f8 f4 3c
       0.003915301 0.0060069445 0.04904131 0.029903492
000170 4c 6d 3f bc 36 18 2d bc cd 1c 8b 3c 01 07 82 3c
       -0.011683773 -0.010564854 0.016981507 0.01587248
000180 88 cc 74 bd 59 64 c9 39 d4 33 04 bc 65 9b 0e bc
       -0.05976537 0.00038412472 -0.008068997 -0.008704041
000190 ac a4 d0 3b 4a 1d 6d bd fa cb f1 3c 3d ee 5a bd
       0.0063672867 -0.05788926 0.029516209 -0.053449858
0001a0 9f 30 4a bd 8d 3f d7 3c ba 9f be 3b 37 f4 81 3c
       -0.049362775 0.02627542 0.0058173807 0.015863521
0001b0 21 78 ba 3d 9c 21 80 3d 6f 52 2a ba 3c b5 e6 bb
       0.09104944 0.062564105 -0.0006497269 -0.007040648
0001c0 f3 44 20 3d 7f b1 8f 3d fb 1e 3c bd 2f b9 73 bd
       0.039128255 0.070162766 -0.045927983 -0.059502777
0001d0 fa 43 82 3c 7b 80 3c bc 8d be 67 3b 5e bf 15 3d
       0.015901554 -0.0115052415 0.003536138 0.036559455
0001e0 54 d6 05 bd c2 86 db bb 98 06 a0 bc 76 63 d3 bb
       -0.032675102 -0.006699414 -0.019534394 -0.0064510657
0001f0 34 03 bb bc 67 eb 08 bd 6e 88 2e bd a5 f9 be bc
       -0.022828676 -0.033427622 -0.04261058 -0.0233124
000200 3f 3a 29 bd e6 ca c3 3c ac 0b 96 3b 98 99 82 bc
       -0.041315313 0.02390046 0.004579028 -0.01594238
000210 6d 9d 85 bc 63 e6 07 3d ba a0 c5 3c 19 58 44 3c
       -0.016310418 0.0331787 0.024124492 0.011983895
000220 9b cb df bc 1f 30 55 3b 27 e8 ce 3a f9 f4 0f 3c
       -0.027318766 0.0032529903 0.001578574 0.008786433
000230 e5 11 28 ba 9e 40 10 3c 49 d0 36 3c f7 c3 6a bc
       -0.0006411358 0.008804468 0.0111580575 -0.014328948
000240 fc 3c 07 bd 0c 40 f1 bc ed d1 8d bc 9c 3b ce 3b
       -0.033017144 -0.029449485 -0.017312014 0.006293727
000250 76 d9 d3 bb 38 b6 91 3c 13 78 5a 3c 70 cc 36 bc
       -0.0064651323 0.017787084 0.013334292 -0.01115714
000260 50 4e b3 3c 94 07 b5 bd f8 7a fc bc fd 9c 1a bd
       0.021887928 -0.08839336 -0.030820355 -0.037747372
000270 30 4a a6 bc 84 cf fa bc ac dd 7f bc f6 79 71 bd
       -0.020299047 -0.03061653 -0.015616816 -0.0589542
000280 6f 4f c2 bb 8a 02 1f bd c3 a4 18 bd 1d bb 8f bd
       -0.0059298794 -0.03882078 -0.037266504 -0.07018111
000290 e8 02 34 bc c6 2c eb bc 02 ee 76 bc 72 08 e3 3c
       -0.010987021 -0.028707873 -0.015071394 0.027713988
0002a0 66 b6 9d 39 2d a2 fa 3c 25 9f 83 bc 96 0f 2f 3d
       0.0003008127 0.03059491 -0.016067097 0.042739473
0002b0 4e a4 f7 3b ba a9 99 3c 41 09 44 3c 0b 5f 8a bd
       0.0075574284 0.01875769 0.011965097 -0.06756409
0002c0 62 61 c4 bb 44 88 1c bd e0 6b c4 3c 9d bb e8 bc
       -0.0059930542 -0.03821589 0.02397722 -0.028409773
0002d0 a2 be cc bc 8c 1f a4 3c 82 24 8c b9 0d 40 ec ba
       -0.024993245 0.020034574 -0.0002673008 -0.001802446
0002e0 64 3d 0b bd 6f ca 48 bd ee 29 08 bc c3 d1 d2 bc
       -0.033994094 -0.04902118 -0.008310778 -0.025734788
0002f0 65 35 23 3c 78 bd 71 bc 27 bb c6 bc a4 8b 05 3d
       0.009961461 -0.0147546455 -0.024259163 0.032603875
000300 f6 f4 7b bc 47 b8 9a bb 2e ee db 3b 8c 7c 59 3c
       -0.015378227 -0.0047216746 0.006711743 0.013274323
000310 98 17 32 bc ca 60 06 bc 2b 12 62 bc 88 d1 f4 3b
       -0.010869883 -0.008201787 -0.013798277 0.007471267
000320 e6 a7 08 bc 5f 5d 1d bd 8e ef 37 bd 7d aa 45 bc
       -0.008340811 -0.038419124 -0.04490619 -0.012064573
000330 73 c1 ea 3b 21 04 1e 3c f2 4f e9 3a 97 c6 51 3a
       0.007164174 0.009644539 0.0017800315 0.00080023095
000340 42 08 49 3c a9 b4 a2 bb 76 4d 8b bc 23 46 26 bd
       0.012270035 -0.004965384 -0.01700471 -0.04059423
000350 3b 13 6c bb c6 28 43 3b d3 69 a2 3a 1e 83 ac 3b
       -0.0036022204 0.0029778942 0.0012391157 0.005264654
000360 1a 75 88 bc c2 69 9c bc ab 33 81 3c 41 4e 43 bd
       -0.0166574 -0.019093398 0.015771708 -0.04768205
000370 b4 e1 08 ba 63 79 06 bd bd aa f3 bb 95 4f a3 3a
       -0.00052216207 -0.032830607 -0.007436125 0.001245963
000380 68 0f a8 3b 8b f4 0f 3d 77 93 8e bc 67 45 99 3d
       0.0051287897 0.035145324 -0.017404301 0.074839406
000390 97 27 c5 bc 06 f9 fd 3b d6 85 7d 3c cd 54 ea 3b
       -0.02406673 0.007750633 0.0154738035 0.0071512223
0003a0 4f 71 c9 3b 0c fd 80 bc c9 84 95 3b 80 2f 11 bd
       0.0061475406 -0.015745662 0.0045629484 -0.03544569
0003b0 1c ec 8b bd 41 3f 36 3c cf 45 5d bc e7 36 a9 3a
       -0.06832144 0.011123479 -0.013505413 0.0012910039
0003c0 06 b5 3c 3b 4c 25 dd bc e2 d8 72 bc d4 d1 1a 3c
       0.0028794422 -0.026995324 -0.014822217 0.009449441
0003d0 12 8e 6c bc af 98 cf 3c 5e b9 d8 3c 0b 0c 45 3d
       -0.014438169 0.02534136 0.026455577 0.04810719
0003e0 cf f5 ab 3c d4 11 6e 3d b2 4c 11 3c dc df 83 3d
       0.020991234 0.05812247 0.008868383 0.06439182
0003f0 95 bc 24 3d bf f9 d4 3c d2 02 51 bc e2 00 d6 3c
       0.04021891 0.025997994 -0.01275702 0.026123468

conv4.bias f4 [64]
000000 6f c5 05 3d 02 bc 0d bc af df b4 bb 88 e4 82 3c
       0.03265899 -0.008650782 -0.005519829 0.015978113
000010 2f 1d 65 3c 54 6b e5 bc ce f4 33 3c d4 28 94 bc
       0.013984009 -0.02800528 0.010983659 -0.018085875
000020 54 46 08 3d 34 c9 c9 bc f0 9d fe bc 31 59 b0 3c
       0.033270195 -0.024632074 -0.03108117 0.021526905
000030 68 1b e4 3c e9 9a 02 3c d0 5d c4 3c 2d 99 12 3d
       0.0278451 0.007971504 0.023970515 0.03579061
000040 f4 c8 29 3d 0d ea 1d bd 56 95 22 3c 09 96 5c 3c
       0.04145141 -0.038553286 0.0099233 0.013463506
000050 55 99 d6 3c 58 98 02 bb aa 23 1d bc f0 b3 43 bb
       0.026196161 -0.001992723 -0.0095910225 -0.002986189
000060 66 f7 84 3c 8e 38 29 bc c6 8d df bc 81 eb 15 3d
       0.01623125 -0.010328425 -0.027289283 0.036601547
000070 c7 52 20 bd 39 a4 42 bc b4 ad 0f 3d 93 bd 88 3b
       -0.039141443 -0.011879974 0.035077766 0.0041729896
000080 4f 95 2f 3c 80 22 ec bb 29 4c 09 3d 03 fa 0c bd
       0.01071675 -0.007206261 0.033519898 -0.034418117
000090 e0 ce 29 bd fa 97 0e 3d 67 91 ff 3c 88 93 9a bc
       -0.041457057 0.034812905 0.031197263 -0.018869177
0000a0 a0 47 4d bc fd 1f 55 3c 2b 54 7f bc c5 cd 0f bd
       -0.012529284 0.013008115 -0.015584032 -0.035108346
0000b0 9f e5 88 ba 7e 63 22 bd 8a 6b b6 3c 3c 94 11 bd
       -0.0010444409 -0.039645664 0.022268075 -0.035541758
0000c0 25 b0 85 bc 44 15 df bc 3d 1a 16 bc e7 53 f0 bc
       -0.016319344 -0.02723182 -0.009161529 -0.029336883
0000d0 16 ad 55 bc 69 06 ea 3b f1 24 c4 bb 24 b3 a1 bc
       -0.013041755 0.0071418774 -0.005985849 -0.019738741
0000e0 ae ff 94 bb a6 32 2a 3d b1 22 28 bd 64 8d 3a 3c
       -0.004547081 0.04155221 -0.04104871 0.011386249
0000f0 06 e6 28 3d 31 62 02 3d 27 27 25 3d b2 ea 82 bc
       0.041234992 0.031831924 0.04032054 -0.015981052

batchNorm4.weight f4 [64]
000000 bf 66 4c 3f 6a 8a 48 3f 4c ab 4e 3f d3 82 3f 3f
       0.7984428 0.78336203 0.8073013 0.74808997
000010 30 5b 38 3f 21 97 65 3f cc ff 4f 3f af 1c 4f 3f
       0.7201414 0.8968373 0.8124969 0.8090314
000020 a6 b6 4e 3f d9 eb 5c 3f 9a 9b 53 3f 34 25 4f 3f
       0.8074745 0.86297375 0.82659304 0.8091614
000030 f5 60 5f 3f 42 61 64 3f 40 56 3e 3f c4 18 5c 3f
       0.8725732 0.89210904 0.7435036 0.8597529
000040 02 24 4c 3f dc a7 4f 3f d9 3a 5f 3f 20 9a 47 3f
       0.79742444 0.8111551 0.8719917 0.7796955
000050 af 5d 42 3f 6a ad 6a 3f 9a c9 42 3f a4 f5 44 3f
       0.759242 0.9167086 0.7608887 0.7693732
000060 8c 79 61 3f 14 50 53 3f ff 91 4b 3f 65 bf 45 3f
       0.8807609 0.82544065 0.7951965 0.7724517
000070 68 f5 47 3f 68 f0 63 3f e5 bd 59 3f 85 2f 4d 3f
       0.78108835 0.89038706 0.8505538 0.80150634
000080 a6 a8 5f 3f a7 7a 45 3f 0e 30 6a 3f be fe 5d 3f
       0.8736671 0.7714028 0.91479576 0.8671683
000090 0e d9 3d 3f 8c 26 54 3f 38 fd 4b 3f 5f 22 41 3f
       0.74159324 0.8287132 0.79683256 0.7544307
0000a0 6e aa 49 3f f3 b7 6d 3f 6f 0f 5b 3f 6e 72 4e 3f
       0.7877568 0.9285881 0.85570425 0.80643356
0000b0 13 5e 43 3f 1c 13 57 3f 13 ab 4e 3f 2e d6 55 3f
       0.7631542 0.84013534 0.8072979 0.8352994
0000c0 ef ab 3f 3f 11 cf 45 3f 6e df 5d 3f 0a c9 56 3f
       0.74871725 0.77269083 0.8666905 0.8390051
0000d0 70 ed 5c 3f ac 4f 3e 3f 36 5d 55 3f 82 89 57 3f
       0.862998 0.7434032 0.83345354 0.84194195
0000e0 61 79 44 3f 3c 77 50 3f e5 42 41 3f ff eb 44 3f
       0.7674771 0.8143194 0.754927 0.769226
0000f0 68 e8 53 3f 36 a3 52 3f bf 92 4c 3f c2 8d 5a 3f
       0.827765 0.8228029 0.79911417 0.85372555
