specq_lab3/model.ckpt (torch, 429695 bytes, 10 tensors)

conv1.weight f4 [32, 3, 3, 3]
-0.21715936 -0.15961032 -0.30808115 -0.1386161 -0.06378573 -0.2063926 -0.18939367 -0.055844694
0.16434568 -0.033419218 -0.29757643 -0.16870467 0.08493536 -0.0052422085 -0.15344326 -0.07156151
0.20944987 0.24230099 0.042610254 0.09100295 -0.15787095 0.111621015 0.24795005 0.019873898
0.04407967 0.26739308 0.19481628 0.060193222 -0.19237037 -0.17721327 -0.064366914 -0.11457475
-0.009200171 -0.2896298 -0.49399278 -0.021360766 0.13325626 -0.2685263 0.0931592 0.17407432
-0.123853885 0.21650484 -0.12754327 -0.28432068 -0.028322281 0.20073082 -0.028490936 0.13399152
0.14086537 0.28592014 0.42639348 0.1082417 -0.14754976 0.24697784 -0.10364467 0.1480513
0.22909388 -0.152101 0.11556374 -0.23149051 -0.26923934 -0.121256106 -0.2021722 0.033168353
0.32851395 0.12591712 0.14228643 -0.03798386 -0.36711225 0.030341165 0.1388405 0.012583298
0.1485686 0.14412533 -0.0117643075 -0.005009348 -0.019308468 -0.34613687 -0.13921617 0.25012925
0.09137238 0.19205804 0.30265972 -0.121419 0.2083911 0.30738285 -0.056200035 0.003981035
-0.06002119 -0.2285648 -0.046933115 0.09975353 -0.24551527 -0.121131495 -0.14595856 -0.4687446
0.10970686 -0.37808716 -0.33585504 -0.092659265 0.11929964 0.15916559 -0.044697806 0.13563012
0.005098223 -0.031586926 -0.18854524 -0.1259666 0.09535852 0.09278142 0.061252855 0.015436878
0.2310002 0.12725073 -0.104520194 -0.10586938 5.1083567e-05 0.022437742 0.05859146 0.12208081
-0.04453267 0.03023643 -0.120528296 0.06752964 -0.035441034 -0.28440163 -0.013063556 0.29131874
0.13557227 0.06787501 0.1890611 -0.059686773 0.1534777 -0.17359045 -0.15130638 -0.06957824
-0.1155877 0.111862116 0.009650084 -0.23247172 0.26871568 0.07519609 -0.13683319 0.11529438
-0.08434478 -0.18397951 -0.029616214 -0.023488976 -0.35345626 0.24517263 0.20057644 0.03287095
0.20397905 0.055781007 -0.20619182 0.039761297 -0.105432995 -0.14691596 0.46594518 -0.06314968
-0.023115749 -0.024351714 0.41771707 0.50869584 0.267052 0.24280836 0.41791013 0.0777726
-0.44103307 -0.34640047 -0.031206874 0.00646614 -0.14973304 -0.11526994 -0.32732102 -0.03624345
0.07176993 -0.19838282 -0.2677973 -0.20236126 -0.12946235 -0.26205432 -0.11029971 -0.008879769
-0.06492329 -0.08633653 0.36670887 -0.01527326 0.37676984 -0.054915622 0.23386495 -0.14523989
-0.26919353 0.20164116 -0.0009678558 0.04642339 -0.07090236 0.07219121 -0.09617842 0.23211968
-0.23008035 -0.47776967 0.20604222 0.1081995 0.050356902 0.040472474 0.088700235 0.030578893
0.3055964 -0.15946844 -0.26513767 0.09195702 0.22875805 -0.24448185 -0.037721388 0.096335135
-0.13970974 -0.199002 -0.2857392 -0.18780218 0.014941381 0.15036756 0.067665614 0.18626623
0.06194672 0.0048566996 0.12328348 -0.12085384 0.07324485 0.19176953 0.4267829 0.06466769
0.14579627 0.16060653 0.030623564 -0.055904213 -0.06879484 -0.05223402 -0.23711336 0.054966792
-0.17642137 -0.2711932 -0.14896628 -0.05738986 -0.2599604 0.16315001 -0.022688944 -0.23945498
-0.091196604 0.1743784 0.32291988 0.2593653 -0.11777469 -0.29219735 -0.0749101 0.21559796
00000000: 065f 5ebe e370 23be d0bc 9dbe 61f1 0dbe
00000010: 18a2 82bd 9558 53be 6af0 41be 68bd 64bd
00000020: 3c4a 283e 97e2 08bd f05b 98be ebc0 2cbe
00000030: 97f2 ad3d d5c6 abbb 3b20 1dbe d78e 92bd
00000040: 077a 563e c01d 783e 1788 2e3d c15f ba3d
00000050: eca8 21be 8f99 e43d 9ee6 7d3e 96ce a23c
00000060: e28c 343d bfe7 883e eb7d 473e 2b8d 763d
00000070: bdfc 44be 6577 35be cdd2 83bd 2ba6 eabd
00000080: 50bc 16bc 5b4a 94be 9fec fcbe c6fc aebc
00000090: 5474 083e 477c 89be 40ca be3d 8a40 323e
000000a0: 1ba7 fdbd 72b3 5d3e b49a 02be 7b92 91be
000000b0: 2104 e8bc 618c 4d3e d365 e9bc 1335 093e
000000c0: 033f 103e 2064 923e 3f50 da3e d3ad dd3d
000000d0: 4917 17be c2e7 7c3e a843 d4bd c39a 173e
000000e0: 9697 6a3e 5dc0 1bbe afac ec3d d90b 6dbe
000000f0: bdd9 89be 1f55 f8bd 3b06 4fbe 8adb 073d
00000100: fb32 a83e 6bf0 003e 89b3 113e f794 1bbd
00000110: 23f6 bbbe 098e f83c 342c 0e3e 2d2a 4e3c
00000120: 5e22 183e 9795 133e 15bf 40bc 7525 a4bb
00000130: cb2c 9ebc da38 b1be af8e 0ebe f110 803e
00000140: 7121 bb3d ddaa 443e 37f6 9a3e 86aa f8bd
00000150: 7a64 553e 4961 9d3e 0232 66bd 5873 823b
00000160: c8d8 75bd e40c 6abe f03c 40bd 944b cc3d
00000170: 5b68 7bbe ca13 f8bd 2976 15be 4bff efbe
00000180: fdad e03d a494 c1be 31f5 abbe 24c4 bdbd
00000190: 5f53 f43d 4efc 223e 0c15 37bd 9fe2 0a3e
000001a0: ff0e a73b 4b61 01bd 0112 41be 63fd 00be
000001b0: 544b c33d 2f04 be3d 46e4 7a3d f6ea 7c3c
000001c0: 518b 6c3e 044e 023e af0e d6bd 0cd2 d8bd
000001d0: 9042 5638 5bcf b73c 99fd 6f3d 8105 fa3d
000001e0: e467 36bd 64b2 f73c 8ad7 f6bd fb4c 8a3d
000001f0: 9e2a 11bd 179d 91be 8608 56bc bb27 953e
00000200: 75d3 0a3e 0e02 8b3d 3c99 413e 1e7a 74bd
00000210: 4229 1d3e b2c1 31be 0ff0 1abe 097f 8ebd
00000220: 3eb9 ecbd f717 e53d 631b 1e3c 110d 6ebe
00000230: 1a95 893e 6800 9a3d 001e 0cbe 761f ec3d
00000240: f5bc acbd 2065 3cbe b49d f2bc f46b c0bc
00000250: 38f8 b4be 890e 7b3e e963 4d3e b0a3 063d
00000260: e2df 503e a07a 643d f323 53be bedc 223d
00000270: 41ed d7bd 2371 16be 5e90 ee3e 9f54 81bd
00000280: 3d5d bdbc 3f7d c7bc 03df d53e e439 023f
00000290: 0abb 883e c1a2 783e 51f8 d53e 3e47 9f3d
000002a0: 16cf e1be 675b b1be 8fa5 ffbc eae1 d33b
000002b0: 9e53 19be a512 ecbd 9f96 a7be 0374 14bd
000002c0: 1dfc 923d de24 4bbe ba1c 89be ca37 4fbe
000002d0: c791 04be fc2b 86be d0e4 e1bd 737c 11bc
000002e0: 80f6 84bd 35d1 b0bd 44c1 bb3e b23c 7abc
000002f0: fae7 c03e 34ef 60bd 4b7a 6f3e c4b9 14be
00000300: bcd3 89be 057b 4e3e b4b7 7dba 7426 3e3d
00000310: 4235 91bd fcd8 933d 31f9 c4bd c8b0 6d3e
00000320: 2f9a 6bbe 3a9e f4be bbfc 523e b397 dd3d
00000330: 0a43 4e3d 77c6 253d 78a8 b53d 9680 fa3c
00000340: 2277 9c3e b24b 23be 20c0 87be f653 bc3d
00000350: 8d3f 6a3e 7359 7abe be81 1abd 5b4b c53d
00000360: 1210 0fbe 2ec7 4bbe 694c 92be 374f 40be
00000370: b2cc 743c f4f9 193e 4594 8a3d 93bc 3e3e
00000380: d8bb 7d3d f324 9f3b 0d7c fc3d 3882 f7bd
00000390: 6501 963d 3b5f 443e 4a83 da3e 7e70 843d
000003a0: 9e4b 153e 0a76 243e 45de fa3c d1fb 64bd
000003b0: 4fe4 8cbd 57f3 55bd d8cd 72be dc24 613d
000003c0: cea7 34be d6d9 8abe 9e8a 18be a111 6bbd
000003d0: 8819 85be cc10 273e 2ade b9bc b033 75be
000003e0: 49c5 babd 4090 323e c155 a53e 87cb 843e
000003f0: db33 f1bd e49a 95be 776a 99bd b6c5 5c3e

conv1.bias f4 [32]
-0.25069836 -0.09602646 0.09655022 -0.5828392 -0.0965698 0.17641859 -0.13801014 0.34298635
-0.021451553 0.09905939 -0.098472044 0.41877073 -0.33882964 0.01140049 -0.18018472 -0.11359031
0.12314822 -0.059917837 0.22789107 0.24324806 -0.3598078 0.3635678 0.26860544 -0.08292491
-0.20249158 0.004530863 0.29522592 -0.0003871573 0.22995186 0.13799967 0.22065692 0.17349131
00000000: 895b 80be 85a9 c4bd 1fbc c53d f334 15bf
00000010: 63c6 c5bd 13a7 343e 8852 0dbe e89b af3e
00000020: 2bbb afbc a6df ca3d b6ab c9bd 1e69 d63e
00000030: 147b adbe 1fc9 3a3c 5882 38be 09a2 e8bd
00000040: 2235 fc3d 686c 75bd 475c 693e 0516 793e
00000050: ba38 b8be 8f25 ba3e a786 893e 89d4 a9bd
00000060: f459 4fbe a277 943b da27 973e 60fb cab9
00000070: 8078 6b3e c94f 0d3e e3f3 613e b5a7 313e

conv2.weight f4 [32, 32, 3, 3]
-0.05541571 -0.0034193622 0.0046195094 0.050204188 0.13548842 0.121543266 -0.031566657 0.017956885
0.12373192 -0.056672074 0.011434498 -0.10374571 0.10509972 0.19208042 0.09698406 0.06521691
0.19714442 0.16443437 -0.014818476 -0.012042235 0.08210159 0.01493298 0.01880178 0.006882888
-0.03455604 0.066125095 0.09086845 -0.021660928 -0.16310932 -0.1422314 -0.04355262 -0.06717969
-0.08347435 0.014171723 -0.0469422 -0.06540755 -0.013766206 -0.03457932 0.0056273784 -0.11758534
-0.013874728 -0.005832046 -0.15224956 -0.107188515 -0.029748496 0.046374716 0.020161308 0.002755473
-0.014014652 -0.020169241 -0.01040272 -0.06654225 0.023478635 0.017974544 0.04920436 -0.012891138
0.056156777 -0.021439211 -0.050051406 -0.095733196 -0.13128734 -0.10775693 -0.0630266 0.033017874
0.017240612 -0.014639307 0.0037897574 0.041648984 -0.04735504 0.095094964 -0.046483185 0.07392515
-0.10896378 -0.11551546 -0.043986104 -0.07570333 -0.10210121 -0.10078326 -0.016519623 -0.1273718
-0.13189891 0.0032623922 0.05244022 -0.036062345 -0.106230654 -0.106974795 -0.048598796 -0.0532843
0.013442209 -0.05180722 -0.022965888 -0.10995637 -0.13670927 -0.047443364 -0.027700754 -0.07567957
0.015959099 0.03312014 0.043320708 0.017996501 0.057093564 -0.033268176 0.07649558 0.09968614
0.008330657 0.0023411294 0.015389071 0.06110223 -0.13913025 -0.09841649 -0.09690321 -0.048253626
-0.114619344 -0.023017695 -0.14023255 -0.12702511 -0.043396324 -0.0261764 -0.10989272 -0.13187599
-0.011303928 -0.087996356 -0.013457499 0.015869321 0.0086178435 -0.012023075 0.026173934 0.05544069
-0.0276082 0.014052587 0.027359493 0.013862798 -0.08796823 -0.047584474 -0.057613324 0.05976189
0.07143642 -0.016025756 0.06824005 0.012015381 0.010031832 -0.030342838 -0.021233715 -0.058857977
0.05952279 -0.010450889 -0.0901542 0.04779021 0.031672794 -0.014130501 -0.0063581583 0.10727079
0.05593493 -0.10856033 -0.10115349 -0.11860639 -0.021642435 0.04604127 0.07432521 -0.031857893
0.070790984 0.08146147 0.029842207 -0.045297597 -0.06152541 0.020366885 -0.009776034 -0.009029886
-0.043186076 -0.05629595 -0.039970305 0.117476605 -0.020703422 -0.07914566 0.04136461 0.04294657
-0.058406316 0.061177783 0.004372618 -0.012585335 0.075427525 0.008376119 0.02998093 0.012446506
-0.049395394 -0.003978283 -0.037604056 0.018920617 0.00928458 -0.025875526 -0.01682213 -0.13095316
0.03093177 0.028754257 0.02862187 0.07172827 0.049908113 0.059598878 -0.008158451 -0.006275241
0.05116099 0.053991694 0.087974764 0.0024710356 -0.016586158 -0.0069048777 0.013168242 0.008168545
0.046166256 0.0643546 0.024083557 0.015174673 -0.050207816 -0.08846096 -0.014933477 -0.05855756
0.004639173 0.012594664 -0.05978647 -0.07921626 -0.04127663 -0.07733478 -0.09352743 -0.13108042
-0.03805674 -0.012544 0.0081792995 -0.050068133 -0.045009874 0.041270528 0.043059472 0.030865595
0.04271844 0.019486891 -0.053871 -0.024934692 -0.045251418 0.011726872 0.038593333 -0.010042869
-0.09554655 0.02635787 0.050676614 -0.06768678 0.049724836 0.03157668 -0.056409944 -0.029475331
-0.059554424 0.08711892 0.018224303 -0.0020577419 0.087498575 -0.049540013 0.011253824 -0.0073054135
00000000: 95fb 62bd 6117 60bb 415f 973b e8a2 4d3d
00000010: 7abd 0a3e adeb f83d 0a4c 01bd 511a 933c
00000020: 2967 fd3d fa20 68bd c357 3b3c a178 d4bd
00000030: 863e d73d bbb0 443e 949f c63d 7190 853d
00000040: 3ae0 493e 7c61 283e 31c9 72bc cb4c 45bc
00000050: e124 a83d 75a9 743c 3106 9a3c d989 e13b
00000060: a28a 0dbd 986c 873d 3d19 ba3d 4272 b1bc
00000070: 2106 27be 1ca5 11be 3b64 32bd 8195 89bd
00000080: 9af4 aabd 8430 683c 7746 40bd 65f4 85bd
00000090: a78b 61bc 0ca3 0dbd df65 b83b 95d0 f0bd
000000a0: d452 63bc bf1a bfbb 4fe7 1bbe a785 dbbd
000000b0: 1eb3 f3bc 6af3 3d3d 5429 a53c 2a95 343b
000000c0: b69d 65bc f739 a5bc 2c70 2abc 4e47 88bd
000000d0: 4456 c03c 5a3f 933c 838a 493d 5a35 53bc
000000e0: a604 663d 49a1 afbc b402 4dbd c40f c4bd
000000f0: 3070 06be aaaf dcbd 1714 81bd c03d 073d
00000100: 2f3c 8d3c b4d9 6fbc 945d 783b 2098 2a3d
00000110: 5cf7 41bd 26c1 c23d 2765 3ebd 1266 973d
00000120: 6728 dfbd 5f93 ecbd c62a 34bd 590a 9bbd
00000130: 701a d1bd 7467 cebd 2954 87bc c16d 02be
00000140: 8210 07be dccd 553b 8ecb 563d 1cb6 13bd
00000150: 758f d9bd 9a15 dbbd 880f 47bd a340 5abd
00000160: b63c 5c3c cf33 54bd f522 bcbc ce30 e1bd
00000170: 84fd 0bbe f953 42bd b1ec e2bc e4fd 9abd
00000180: a8bc 823c fca8 073d 0e71 313d 666d 933c
00000190: f1da 693d 3644 08bd b7a9 9c3d 3f28 cc3d
000001a0: 4f7d 083c a26d 193b 7122 7c3c 5546 7a3d
000001b0: 2978 0ebe 968e c9bd 3175 c6bd 98a5 45bd
000001c0: 8cbd eabd 9b8f bcbc 1f99 0fbe df12 02be
000001d0: 58c0 31bd e46f d6bc 6f0f e1bd 800a 07be
000001e0: 1c34 39bc 6f37 b4bd d87c 5cbc 6100 823c
000001f0: db31 0d3c 6efc 44bc b86a d63c c715 633d
00000200: 982a e2bc d23c 663c 0421 e03c ca20 633c
00000210: b028 b4bd f0e7 42bd f3fb 6bbd e2c8 743d
00000220: 424d 923d 7248 83bc 70c1 8b3d 29dc 443c
00000230: 8e5c 243c 8b91 f8bc 54f2 adbc 1015 71bd
00000240: 2bce 733d 353a 2bbc c4a2 b8bd abbf 433d
00000250: 55bb 013d 9e83 67bc 1958 d0bb cab0 db3d
00000260: 061c 653d e154 debd 9029 cfbd e8e7 f2bd
00000270: 7a4b b1bc c595 3c3d d137 983d 6c7d 02bd
00000280: ddfa 903d 45d5 a63d a577 f43c f989 39bd
00000290: 1102 7cbd 74d8 a63c a92b 20bc 16f2 13bc
000002a0: e2e3 30bd 9596 66bd e7b7 23bd 9397 f03d
000002b0: 399a a9bc 1f17 a2bd f06d 293d bee8 2f3d
000002c0: 763b 6fbd 8e95 7a3d 2e48 8f3b b932 4ebc
000002d0: bf79 9a3d fd3b 093c 919a f53c 6eec 4b3c
000002e0: d352 4abd 425c 82bb b606 1abd 69ff 9a3c
000002f0: 5a1e 183c e9f8 d3bc 90ce 89bc 9618 06be
00000300: a064 fd3c 0c8e eb3c 6978 ea3c 45e6 923d
00000310: 736c 4c3d f41d 743d 06ab 05bc 89a0 cdbb
00000320: 308e 513d 6526 5d3d 1d2c b43d 19f1 213b
00000330: b2df 87bc 5042 e2bb 9cbf 573c 5cd5 053c
00000340: d418 3d3d 58cc 833d e14a c53c 319f 783c
00000350: b6a6 4dbd 052b b5bd 8bab 74bc 0dda 6fbd
00000360: 3404 983b d959 4e3c a8e2 74bd 223c a2bd
00000370: af11 29bd b261 9ebd 4f8b bfbd f239 06be
00000380: 62e1 1bbd 5985 4dbc 7802 063c 3e14 4dbd
00000390: 465c 38bd 490b 293d 215f 303d d8d9 fc3c
000003a0: 88f9 2e3d f9a2 9f3c d6a7 5cbd d743 ccbc
000003b0: 8d59 39bd 1122 403c 0b14 1e3d d88a 24bc
000003c0: e9ad c3bd 76ec d73c 4892 4f3d 5e9f 8abd
000003d0: 45ac 4b3d 8c56 013d 1d0e 67bd 4076 f1bc
000003e0: 57ef 73bd 686b b23d 224b 953c 2edb 06bb
000003f0: 7432 b33d 78ea 4abd f661 383c 4062 efbb

conv2.bias f4 [32]
0.23462486 -0.030879397 -0.029423919 0.08758117 -0.060249154 0.26748264 -0.08092363 -0.0052274438
0.06747853 0.04368839 0.0270698 -0.21393135 -0.009856667 -0.0907691 -0.049315732 0.007026453
0.11185992 -0.14156035 -0.0015411214 0.36773327 -0.30808792 0.021834737 0.05890704 -0.13998628
-0.39494142 -0.044838317 0.003148533 -0.050394855 -0.27866247 -0.019001534 -0.11724318 -0.15331073
00000000: 8041 703e caf6 fcbc 6e0a f1bc c25d b33d
00000010: d1c7 76bd 7cf3 883e 4abb a5bd fa4a abbb
00000020: 2f32 8a3d 99f2 323d 7cc1 dd3c d210 5bbe
00000030: dc7d 21bc 26e5 b9bd 4bff 49bd 293e e63b
00000040: d016 e53d 32f5 10be 74ff c9ba 8947 bc3e
00000050: b3bd 9dbe c3de b23c 8248 713d 9058 0fbe
00000060: c335 cabe 62a8 37bd 9e57 4e3b d66a 4ebd
00000070: d9ac 8ebe 1ba9 9bbc 311d f0bd 7dfd 1cbe

conv3.weight f4 [64, 32, 3, 3]
-0.1675202 -0.054591667 0.02253774 -0.035342667 0.066501044 0.063980475 0.0373861 0.12292238
0.10977071 -0.07733605 -0.026798174 0.023039287 -0.00010802259 -0.042880964 0.079016 -0.04128548
-0.013606073 -0.03773144 -0.16265717 -0.10552658 0.031180246 -0.010384291 0.0399948 0.026547045
0.0140613625 0.12503494 0.046138994 0.10743975 0.018665902 0.040776547 -0.024213541 0.04855953
0.012740628 -0.011713565 0.060045157 -0.0520437 0.12416218 -0.027567646 0.010423128 0.056620523
0.011055862 -0.01883657 0.024617773 0.055708785 0.0012759139 -0.021884123 -0.005018098 -0.04367779
0.024504647 0.0477611 0.08193869 -0.0051036826 -0.017669689 0.049245957 0.061541438 0.027604252
-0.053205784 -0.057312246 -0.025693532 -0.03636557 -0.06489132 -0.0077409623 -0.11133672 -0.021468803
0.019418797 0.011283877 -0.033501644 0.050769217 0.060826264 -0.060714707 0.06350682 0.031388067
-0.020903118 -0.08579728 -0.0071523 0.03083547 0.029497545 0.024830513 -0.05389943 -0.043723606
-0.02528035 -0.0750588 -0.1088294 -0.054297477 0.013256541 -0.060574003 -0.098253824 -0.04648292
0.025831092 -0.12352119 -0.11677636 -0.04024588 0.027560785 0.011795522 -0.030094609 0.055500697
-0.03127042 0.009246367 0.016539393 -0.035524216 0.0003396134 0.081342265 0.03487393 0.02740757
-0.023515124 -0.061440084 0.020059455 0.0072944625 -0.02975791 -0.027642084 -0.027308486 -0.045603923
-0.01825172 -0.0054647177 0.049337488 0.004864811 0.044108443 -0.046454847 0.048351936 -0.06292511
-0.0069509125 -0.022093782 0.018841328 0.015971523 -0.017536908 -0.0345873 0.0454881 0.029523013
-0.056255095 0.052247692 0.05269008 -0.011347207 -0.03648957 -0.0019651433 -0.021823118 -0.059876036
-0.046585407 -0.0017360935 -0.04463323 -0.069171794 0.007712767 0.008303553 -0.06891767 0.0434104
-0.040475138 0.036568396 0.05103109 0.031976577 -0.026760282 -0.005979815 0.010734481 -0.012562953
0.040403534 -0.032460596 -0.006994665 0.04531314 -0.05882482 -0.08839592 0.037065223 -0.04227766
-0.05648769 0.01641767 0.053117193 -0.025368806 -0.065948226 0.028922077 0.082469456 0.010846238
-0.031758714 0.005323229 -0.056525417 -0.0014788947 0.0073651383 -0.021925854 -0.06301158 -0.08648974
0.06710631 -0.045285217 -0.10203488 -0.0035772652 -0.014456485 -0.0338588 -0.054120865 -0.047324624
-0.024018802 0.08965752 -0.07924489 -0.002036175 0.085851 0.0024903785 -0.046191033 -0.02427743
-0.0592042 0.03267977 0.041186538 -0.01077979 -0.050680347 -0.044849157 -0.030325077 -0.007865427
-0.0126196025 -0.071888916 0.006117318 7.944656e-05 -0.021424484 0.0016961304 0.022401508 0.03995967
-0.015876131 -0.028233761 -0.049083732 0.0735511 0.073297165 -0.025271824 0.011371147 0.0346778
0.07447333 0.04045259 -0.015855202 -0.0001273829 -0.030158462 -0.034781575 -0.0049822833 -0.05600265
-0.06708798 -0.0008526469 0.050374392 0.07724735 -0.07371276 0.06768245 0.0539211 -0.048460763
0.015767712 0.005336276 -0.005334635 0.10443713 -0.012399987 -0.0011628477 0.07733395 -0.021077598
-0.04156452 -0.017267814 0.03806997 -0.019495819 -0.03633974 -0.071088806 -0.027631965 0.009509184
0.018293157 0.01100891 -0.05665933 0.016235279 -0.03440121 0.0825133 -0.02322468 -0.059869647
00000000: 6a8a 2bbe 839b 5fbd 11a1 b83c 79c3 10bd
00000010: b331 883d 3208 833d 2b22 193d bbbe fb3d
00000020: 77cf e03d 5d62 9ebd d887 dbbc e3bc bc3c
00000030: 308a e2b8 f3a3 2fbd 24d3 a13d f71a 29bd
00000040: 02ec 5ebc 488c 1abd 9a8f 26be 521e d8bd
00000050: b76d ff3c e022 2abc 96d1 233d 3079 d93c
00000060: a161 663c 2909 003e 3efc 3c3d 5f09 dc3d
00000070: 3ce9 983c 4f05 273d 7a5b c6bc 5ce6 463d
00000080: 11be 503c 41ea 3fbc e9f1 753d c62b 55bd
00000090: be48 fe3d 8bd5 e1bc c4c5 2a3c ecea 673d
000000a0: a523 353c 274f 9abc 36ab c93c e52e 643d
000000b0: 913c a73a 5546 b3bc db6e a4bb 7be7 32bd
000000c0: f8bd c83c 25a1 433d 79cf a73d cb3c a7bb
000000d0: 06c0 90bc 21b6 493d e012 7c3d 5022 e23c
000000e0: 4fee 59bd 3fc0 6abd 3e7b d2bc 10f4 14bd
000000f0: bee5 84bd e6a7 fdbb 8204 e4bd 58df afbc
00000100: 2b14 9f3c 03e0 383c 0539 09bd 62f3 4f3d
00000110: f624 793d fcaf 78bd dd0f 823d c690 003d
00000120: 043d abbc 7cb6 afbd d75d eabb ab9a fc3c
00000130: d6a4 f13c 5c69 cb3c a6c5 5cbd 8617 33bd
00000140: bd18 cfbc 6eb8 99bd f3e1 debd 0867 5ebd
00000150: f731 593c 721c 78bd 4d39 c9bd e064 3ebd
00000160: ba9b d33c adf8 fcbd 7228 efbd ddd8 24bd
00000170: 28c7 e13c 0142 413c f888 f6bc b354 633d
00000180: 6915 00bd 137e 173c 9f7d 873c d781 11bd
00000190: 240e b239 c696 a63d f7d7 0e3d d785 e03c
000001a0: caa2 c0bc 99a8 7bbd ba53 a43c 6306 ef3b
000001b0: dcc6 f3bc a771 e2bc 0cb6 dfbc 2ecb 3abd
000001c0: a284 95bc 6011 b3bb 1b16 4a3d fe68 9f3b
000001d0: 0eab 343d 7047 3ebd ae0c 463d e1de 80bd
000001e0: 7bc4 e3bb 05fe b4bc 2159 9a3c b6d6 823c
000001f0: 90a9 8fbc 6aab 0dbd bb51 3a3d 3fda f13c
00000200: be6b 66bd ad01 563d 8ed1 573d a3e9 39bc
00000210: 1676 15bd a2c9 00bb 65c6 b2bc 9340 75bd
00000220: 57d0 3ebd a28d e3ba 55d1 36bd f1a9 8dbd
00000230: 61bb fc3b a00b 083c b524 8dbd 1bcf 313d
00000240: 42c9 25bd bec8 153d fa05 513d dff9 023d
00000250: 6138 dbbc 53f2 c3bb addf 2f3c d8d4 4dbc
00000260: 2d7e 253d 67f5 04bd 8133 e5bb 459a 393d
00000270: 4bf2 70bd ec08 b5bd b4d1 173d 572b 2dbd
00000280: a35f 67bd 597e 863c 6a91 593d 3ed2 cfbc
00000290: dd0f 87bd feed ec3c bfe5 a83d 6bb4 313c
000002a0: 6d15 02bd 7b6e ae3b 3287 67bd 79d7 c1ba
000002b0: 4257 f13b d99d b3bc 370c 81bd 8821 b1bd
000002c0: 086f 893d fe7c 39bd aaf7 d0bd 8d70 6abb
000002d0: e5da 6cbc 86af 0abd d7ad 5dbd 77d7 41bd
000002e0: 14c3 c4bc 5d9e b73d 254b a2bd 5971 05bb
000002f0: a6d2 af3d 9e35 233b cf32 3dbd 76e1 c6bc
00000300: 1a80 72bd 39db 053d 37b3 283d b79d 30bc
00000310: 3296 4fbd c0b3 37bd 4c6c f8bc fedd 00bc
00000320: 73c2 4ebc 7f3a 93bd c873 c83b 8c9c a638
00000330: 6682 afbc b150 de3a 5e83 b73c c0ac 233d
00000340: a90e 82bc 7d4a e7bc 060c 49bd f6a1 963d
00000350: d31c 963d db06 cfbc 0c4e 3a3c 4f0a 0e3d
00000360: 7985 983d 9db1 253d c5e2 81bc 1692 05b9
00000370: e10e f7bc 2077 0ebd 6c42 a3bb 0963 65bd
00000380: 6c65 89bd 2a84 5fba 6155 4e3d dc33 9e3d
00000390: b7f6 96bd 199d 8a3d 5fdc 5c3d cb7e 46bd
000003a0: 4a2b 813c eddb ae3b 29ce aebb 22e3 d53d
000003b0: 5129 4bbc b26a 98ba 4361 9e3d edaa acbc
000003c0: 8f3f 2abd 3b75 8dbc 42ef 1b3d b2b5 9fbc
000003d0: fbd8 14bd 0297 91bd 6e5c e2bc 69cc 1b3c
000003e0: 88db 953c b75e 343c 9d13 68bd d9ff 843c
000003f0: 48e8 0cbd bcfc a83d af41 bebc e039 75bd

conv3.bias f4 [64]
0.04598289 -0.0947949 -0.49900842 0.22936665 0.18758076 0.50085586 0.05778756 -0.03761018
-0.095239915 -0.0031002555 -0.009078634 0.29652798 0.0023221117 -0.08325597 0.36751774 0.13335761
0.4596459 0.21965928 -0.22541036 0.12108037 -0.14357641 -0.37225708 0.10706389 -0.22841558
0.18433443 0.017736867 0.23156823 -0.30338076 -0.18618953 0.41272107 -0.08313616 0.027417066
0.03930954 0.066675946 -0.057902873 -0.025846368 -0.017609065 0.4072629 -0.12097709 0.36053124
-0.10991924 -0.39151472 0.11875501 0.14902544 -0.20570548 -0.49268568 0.06927337 0.16490152
-0.1504949 0.4115842 0.08738067 -0.17331356 -0.22519803 -0.0040778965 0.1552099 -0.14071627
0.069997855 0.10089957 0.02506226 0.1656231 2.9920193e-06 0.22072685 -0.15219466 -0.22471897
00000000: 8e58 3c3d d423 c2bd 087e ffbe 17df 6a3e
00000010: 2c15 403e 1738 003f a6b2 6c3d 220d 1abd
00000020: 250d c3bd a82d 4bbb 8dbe 14bc 84d2 973e
00000030: 922e 183b 1b82 aabd 492b bc3e e68e 083e
00000040: b556 eb3e 5dee 603e f9d1 66be fcf8 f73d
00000050: b205 13be 7b98 bebe 5044 db3d c6e5 69be
00000060: 2ac2 3c3e e84c 913c 3920 6d3e b954 9bbe
00000070: 78a8 3ebe 2d50 d33e 4b43 aabd c199 e03c
00000080: 0a03 213d 668d 883d 902b 6dbd c3bb d3bc
00000090: e340 90bc c384 d03e d6c2 f7bd 8d97 b83e
000000a0: 571d e1bd 9e74 c8be d435 f33d 209a 183e
000000b0: 75a4 52be 4c41 fcbe 32df 8d3d f2db 283e
000000c0: 561b 1abe 2abb d23e a3f4 b23d 1c79 31be
000000d0: 509a 66be e09f 85bb 58ef 1e3e ed17 10be
000000e0: 095b 8f3d 6fa4 ce3d 5e4f cd3c 1a99 293e
000000f0: 80ca 4836 3806 623e ebd8 1bbe bb1c 66be

conv4.weight f4 [64, 64, 3, 3]
0.09139913 0.030486915 0.00020388604 -0.028826568 0.02579557 -0.015444424 0.04280396 -0.047083747
-0.03379443 0.038723946 -0.0030428646 0.019820547 -0.006800814 0.0072166477 0.017165175 -0.013051016
-0.021002654 0.010738496 -0.0017464095 -0.061000235 0.013337353 -0.026070228 -0.058808357 0.037784014
-0.0243259 0.05788385 0.058413226 0.03471326 0.054832876 0.03062169 0.16097465 0.09560887
0.018533632 0.023408407 -0.019344056 -0.049473442 0.07317174 -0.027553564 0.007963762 0.007064264
-0.06640248 -0.015528885 -0.03291064 0.014628256 0.024093842 -0.07998189 -0.069070145 0.06938801
-0.00921292 -0.065545395 0.030846918 -0.05487684 -0.04779099 0.04083092 -0.028876554 -0.011643732
-0.07077709 0.027902938 -0.06261602 -0.080922075 -0.063645594 -0.038220648 -0.07524444 -0.04130807
0.03808348 -0.0063004335 -0.036303196 -0.03737343 -0.009696798 0.021615654 -0.0520213 0.036443047
0.014327424 0.0017342046 -0.00011292103 -0.02195376 0.0028135248 -0.043075364 -0.012072663 -0.033295065
0.018382698 -0.08230589 -0.033743437 -0.021141304 -0.0071192333 -0.020371344 -0.049630452 -0.02304826
-0.10158502 -0.10128297 -0.014819052 0.032278243 -0.015302266 0.037320882 0.038668755 -0.016434439
-0.04349564 -0.06443404 0.007357225 -0.08532553 -0.03494723 -0.06817614 0.11074573 0.12324503
0.057321645 0.13504638 0.026220689 0.08358608 -0.00071058347 0.016497731 -0.0022702483 -0.03554398
0.020527754 0.0097321365 -0.00066398527 -0.00996664 -0.036523286 -0.014580277 -0.01725557 -0.018202085
-0.046217076 -0.011237188 -0.022929898 -0.06949036 0.017128272 -0.042594768 -0.024790986 0.017635249
0.03390263 -0.06914724 -0.08194974 -0.025495274 0.033602055 -0.0031908469 0.01888697 0.012040733
-0.064928085 0.037737608 -0.0627031 -0.043470744 0.02834573 -0.025391677 -0.052192476 0.08112237
0.030270964 0.02035962 0.0029736622 -0.042219855 -0.053744223 -0.04834852 -0.042384665 -0.11070864
-0.10090464 -0.07069768 -0.06731894 0.044042155 0.032584492 -0.025148839 0.05911022 0.07637473
-0.04483473 0.013081618 -0.056297418 -0.10569762 -0.023870636 0.08859076 -0.017854353 0.0640878
0.043580383 -0.0059004948 -0.010241222 -0.014018774 -0.11485983 -0.12192708 -0.04237069 -0.044804942
-0.05654823 -0.01832758 -0.08275414 -0.028756604 -0.04393325 -0.04101952 0.00748245 0.07824379
-0.060291883 0.037676588 -0.004377377 -0.042155128 -0.012756939 0.13943855 -0.10357069 -0.019581443
-0.07489613 -0.08958556 -0.04617232 -0.16205944 -0.053862076 -0.009299586 -0.05457583 -0.059398603
-0.054931074 -0.027218003 -0.028046401 0.00019557225 -0.01465715 -0.01268935 -0.032855865 0.07265675
0.00038907255 -0.11962326 -0.024305487 -0.049250495 -0.04345121 -0.09854965 -0.08270338 0.01376183
-0.014730237 -0.023585584 -0.04380901 0.03105819 -0.032194242 -0.03008658 0.025736125 -0.010469334
0.014604819 0.026872633 0.016187148 -0.0591969 0.041923217 0.036395956 -0.034361828 -0.098423325
-0.056881983 0.012726677 -0.03775715 0.000114874136 0.05848588 0.021798024 -0.024696944 0.032532174
0.04218741 -0.02991233 0.028231507 0.02006062 0.077552 -0.0522654 0.02268009 0.019411296
0.045620658 -0.034639116 0.02076203 -0.019314615 -0.020712586 -0.021282576 -0.053653672 -0.0066546234
00000000: 782f bb3d b2bf f93c 3eca 5539 b225 ecbc
00000010: 3b51 d33c 9c0a 7dbc 3553 2f3d e3da 40bd
00000020: 076c 0abd 009d 1e3d cc6a 47bb b35e a23c
00000030: 5dd9 debb a179 ec3b fb9d 8c3c eed3 55bc
00000040: c20d acbc 84f0 2f3c c7e7 e4ba 62db 79bd
00000050: ea84 5a3c 3b91 d5bc 08e1 70bd 69c3 1a3d
00000060: 1c47 c7bc 9e17 6d3d b542 6f3d 7e2f 0e3d
00000070: 7098 603d 57da fa3c 8ad6 243e 95ce c33d
00000080: d8d3 973c fdc2 bf3c 6d77 9ebc aaa4 4abd
00000090: 11db 953d 03b8 e1bc 707a 023c 577b e73b
000000a0: 06fe 87bd dd6c 7ebc 4fcd 06bd 5aab 6f3c
000000b0: 7360 c53c 8ccd a3bd a674 8dbd 4d1b 8e3d
000000c0: caf1 16bc aa3c 86bd adb2 fc3c 8ac6 60bd
000000d0: 7cc0 43bd 533e 273d 868e ecbc 5ac5 3ebc
000000e0: 94f3 90bd b494 e43c d43c 80bd 79ba a5bd
000000f0: 9f58 82bd 418d 1cbd c219 9abd a732 29bd
00000100: 6cfd 1b3d de73 cebb a9b2 14bd e214 19bd
00000110: 52df 1ebc 5013 b13c 4914 55bd 4e45 153d
00000120: 92bd 6a3c 404e e33a 04d0 ecb8 5fd8 b3bc
00000130: 1d63 383b cb6f 30bd 6bcc 45bc 6860 08bd
00000140: 5097 963c fe8f a8bd 8f36 0abd 8730 adbc
00000150: 7548 e9bb cee1 a6bc 4d49 4bbd b4cf bcbc
00000160: cf0b d0bd 726d cfbd 9ccb 72bc 3136 043d
00000170: 5bb6 7abc c8dd 183d 2163 1e3d 84a1 86bc
00000180: 7c28 32bd fef5 83bd e014 f13b 27bf aebd
00000190: d424 0fbd ef9f 8bbd a8ce e23d e467 fc3d
000001a0: 1aca 6a3d 9949 0a3e c5cc d63c 2e2f ab3d
000001b0: 7346 3aba 4026 873c 72c8 14bb 9096 11bd
000001c0: d229 a83c 8a73 1f3c 4c0f 2eba 1e4b 23bc
000001d0: 7199 15bd 1de2 6ebc 8e5b 8dbc 8a1c 95bc
000001e0: 1e4e 3dbd 2f1c 38bc 7bd7 bbbc f650 8ebd
000001f0: 9750 8c3c da77 2ebd 7716 cbbc cc77 903c
00000200: 7cdd 0a3d 119d 8dbd 44d5 a7bd 77db d0bc
00000210: 4fa2 093d 871d 51bb d9b8 9a3c 7f46 453c
00000220: 04f9 84bd c092 1a3d 7c6a 80bd 610e 32bd
00000230: 4e35 e83c 3502 d0bc c7c7 55bd 7c23 a63d
00000240: d0fa f73c 38c9 a63c c6e1 423b baee 2cbd
00000250: e722 5cbd 1909 46bd 8b9b 2dbd 36bb e2bd
00000260: 18a7 cebd f2c9 90bd 83de 89bd 8c65 343d
00000270: 5177 053d f004 cebc 8f1d 723d 5b6a 9c3d
00000280: 9fa4 37bd 4854 563c 1f98 66bd fe77 d8bd
00000290: 5a8c c3bc 136f b53d 4b43 92bc 7740 833d
000002a0: 5881 323d f058 c1bb ccca 27bc 00af 65bc
000002b0: a13b ebbd e8b4 f9bd e38c 2dbd 6385 37bd
000002c0: 1e9f 67bd b923 96bc 017b a9bd f892 ebbc
000002d0: 5af3 33bd 1604 28bd 572f f53b 483e a03d
000002e0: 9ff4 76bd c452 1a3d 1a70 8fbb dbaa 2cbd
000002f0: 7b02 51bc fbc8 0e3e df1c d4bd 4369 a0bc
00000300: 2463 99bd a278 b7bd 301f 3dbd e9f2 25be
00000310: 7b9e 5cbd 4a5d 18bc e88a 5fbd f34b 73bd
00000320: 68ff 60bd 4af8 debc 91c1 e5bc 8712 4d39
00000330: 8b24 70bc fee6 4fbc df93 06bd 10cd 943d
00000340: 6ffc cb39 0afd f4bd 4d1c c7bc e3ba 49bd
00000350: e5f9 31bd 66d4 c9bd 6460 a9bd 4c79 613c
00000360: 1857 71bc 8e36 c1bc 1471 33bd bf6d fe3c
00000370: 1cde 03bd 2278 f6bc 91d4 d23c 9287 2bbc
00000380: 0d49 6f3c ff23 dc3c e99a 843c 7378 72bd
00000390: aeb7 2b3d ed13 153d fdbe 0cbd 2b92 c9bd
000003a0: 15fd 68bd 8d83 503c 3ea7 1abd 95e8 f038
000003b0: e48e 6f3d c591 b23c 3f51 cabc 7540 053d
000003c0: b5cc 2c3d b40a f5bc c345 e73c 2b56 a43c
000003d0: 95d3 9e3d 3e14 56bd 99cb b93c 7004 9f3c
000003e0: badc 3a3d bfe1 0dbd 2215 aa3c af39 9ebc
000003f0: 71ad a9bc cc58 aebc f4c3 5bbd 070f dabb

conv4.bias f4 [64]
0.26427647 0.31961086 -0.26248154 0.4000744 0.41090885 -0.014057666 -0.03243776 -0.100766964
0.10579941 0.25231454 -0.11428353 -0.17005332 0.033562053 0.12653863 0.10679741 0.325967
-0.0050614 0.040682003 -0.10987312 0.21361029 -0.06308274 0.5617314 -0.07088667 0.08398145
0.28432983 -0.066579536 0.0037968047 -0.026344458 0.12595595 -0.051553607 0.22935078 0.118692495
-0.12334036 -0.097687714 -0.057848312 -0.18032917 -0.010949696 0.29600924 0.5104827 0.17061694
-0.01411029 0.15480192 0.16218722 0.3126972 -0.105870835 -0.047184348 0.09684928 -0.09784829
0.3575876 0.17608424 -0.03416052 -0.15656067 0.18036924 -0.10095511 -0.2120655 0.30168957
0.6186377 0.05402849 -0.10698196 0.37424114 -0.26182884 -0.042945996 0.13896978 -0.030230626
00000000: 3f4f 873e 09a4 a33e fb63 86be 8dd6 cc3e
00000010: a562 d23e 2052 66bc 75dd 04bd e95e cebd
00000020: 5cad d83d 5f2f 813e 7c0d eabd 7522 2ebe
00000030: 5d78 093d 5893 013e 9ab8 da3d 26e5 a63e
00000040: 1ada a5bb 2ca2 263d 2905 e1bd a8bc 5a3e
00000050: 8631 81bd a1cd 0f3f 082d 91bd 77fe ab3d
00000060: ae93 913e da5a 88bd d0d3 783b 55d0 d7bc
00000070: 99fa 003e e029 53bd eeda 6a3e 0d15 f33d
00000080: df99 fcbd 7f10 c8bd 5af2 6cbd 36a8 38be
00000090: 5b66 33bc 868e 973e ffae 023f 35b6 2e3e
000000a0: d92e 67bc 6584 1e3e 6814 263e d919 a03e
000000b0: cfd2 d8bd 6044 41bd ea58 c63d af64 c8bd
000000c0: b915 b73e 6d4f 343e e7eb 0bbd 7151 20be
000000d0: b7b2 383e 8dc1 cebd b327 59be 0e77 9a3e
000000e0: 0a5f 1e3f fa4c 5d3d 5c19 dbbd 899c bf3e
000000f0: 6e0e 86be 24e8 2fbd 184e 0e3e 38a6 f7bc

fc1.weight f4 [10, 4096]
-0.05821046 -0.026388232 0.0027583258 -0.035255436 -0.0017876955 -0.02066274 -0.017979216 0.04330354
-0.015422276 -0.013858811 -0.04742293 -0.06768934 -0.0028119276 -0.020257775 0.015357836 0.07732628
0.02858373 0.0012593127 -0.08964878 -0.06890229 0.006413901 0.0032376363 -0.026677197 0.012949611
0.020468079 -0.014390308 -0.10042253 -0.015687784 0.028063701 -0.017679188 -0.043139234 0.061756406
-0.0040316763 0.047414396 0.006217785 -0.026048698 0.01200764 -0.032036666 -0.039691143 -0.010161307
-0.009613967 -0.021932898 -0.04130891 -0.0373036 0.027585715 -0.028203174 -0.00846943 -0.0036183589
0.0689521 -0.035073314 -0.035811055 -0.048911784 -0.049947686 0.00012770388 -0.06442242 0.05440047
-0.015549827 0.06953387 0.010986436 0.026995689 0.05110049 -0.00979507 -0.0021686559 0.02842557
-0.006458591 0.0054087024 0.03874769 0.06864961 0.036364753 -0.010209786 0.03559368 0.04255402
0.012784616 -0.014388409 0.034509163 0.031981 0.015135084 0.048062235 0.033521634 -0.007604118
0.0062796404 -0.022402257 0.018777043 0.057034854 0.08954604 0.058378115 0.03241813 -0.0085118385
0.03414431 0.03955247 -0.007221802 0.02792446 0.0100273825 -0.007291379 -0.016105214 0.011802473
0.024366714 -0.0088422885 0.008753415 0.06823038 -0.011203025 -0.004564224 -0.009218076 -0.017469544
-0.0035604916 -0.038458858 -0.06297957 -0.0071481434 0.04370649 0.03443695 0.040958956 -0.05034748
0.009381361 -0.034283325 -0.012261442 0.030302828 0.03855675 -0.010709475 0.033828627 -0.033291947
-0.004074296 -0.050809346 -0.008877368 0.04132944 0.04364954 -0.012420725 -0.005476502 0.0057924693
0.010679341 -0.04623434 -0.11600384 -0.051975172 0.0055182055 -0.0775196 -0.07031537 0.028219307
0.061631158 0.0052516693 0.011519635 0.02399746 -0.032556847 -0.045179047 -0.021987902 -0.012607301
0.032809597 -0.0031662583 0.066185534 -0.0374159 -0.072943926 -0.09373738 -0.005036513 -0.03791438
0.0025059902 0.028944608 0.13107178 0.019404257 0.013618567 0.009809173 -0.03855414 -0.029898092
0.037983272 -0.064197816 0.04438467 0.06434943 0.033725806 -0.04095188 -0.0037894112 -0.047681563
0.039304517 0.005380108 -0.024627004 0.10811424 0.1069324 0.01636786 -0.05292253 -0.029520074
0.06477676 -0.047947798 0.02243464 0.12262502 0.0924865 -0.03864746 -0.041542847 -0.036842145
0.021306295 -0.055544514 0.014694563 -0.0022333479 -0.020765854 -0.04462898 -0.009488816 -0.012231297
-0.13192435 -0.03471583 -0.09577029 -0.079512455 -0.0700368 -0.008242823 -0.03567972 -0.053506494
0.017914107 -0.05869908 -0.07611696 -0.03789907 -0.056227867 0.030067462 -0.042044714 0.04292026
0.012477753 -0.06276364 -0.0895515 -0.03858123 -0.10403169 0.03475442 -0.020871464 0.060658544
-0.019641893 -0.093976095 -0.05797756 0.09058744 -0.070729375 -0.032775465 -0.007956426 0.02848287
-0.050912753 -0.04845251 -0.1072017 -0.014939593 -0.04994077 -0.067097776 -0.07908946 0.0077439444
0.03281967 0.07391216 -0.18733262 -0.009494673 -0.07791593 -0.018768132 -0.0055905273 0.04850528
0.002354042 -0.024997393 -0.025779048 -0.023311513 -0.077854894 -0.078160554 -0.100894615 -0.050995238
0.030744765 0.054308537 -0.008718828 0.022789264 -0.0461992 -0.123596355 -0.12506087 0.056370378
00000000: 176e 6ebd 222c d8bc 07c5 343b 0168 10bd
00000010: 1b51 eaba e844 a9bc 2649 93bc 0e5f 313d
00000020: b7ad 7cbc 1110 63bc 8c3e 42bd b5a0 8abd
00000030: 5148 38bb a2f3 a5bc 6f9f 7b3c 3e5d 9e3d
00000040: 6d28 ea3c 860f a53a c899 b7bd a51c 8dbd
00000050: b42b d23b 862e 543b 238a dabc 9b2a 543c
00000060: acac a73c 54c5 6bbc 54aa cdbd ab83 80bc
00000070: d9e5 e53c f2d3 90bc c4b2 30bd 49f4 7c3d
00000080: 271c 84bb 9935 423d 90be cb3b 1464 d5bc
00000090: b1bb 443c e138 03bd 2e93 22bd 9c7b 26bc
000000a0: e683 1dbc 9fac b3bc 8833 29bd a9cb 18bd
000000b0: 70fb e13c 580a e7bc 5dc3 0abc fd21 6dbb
000000c0: c236 8d3d 09a9 0fbd 9dae 12bd b957 48bd
000000d0: f295 4cbd 40e8 0539 e7ef 83bd 07d3 5e3d
000000e0: b4c4 7ebc c667 8e3d 7400 343c 1026 dd3c
000000f0: bf4e 513d 807b 20bc 0220 0ebb bedc e83c
00000100: 97a2 d3bb 7c3b b13b e6b5 1e3d 2b98 8c3d
00000110: 35f3 143d f246 27bc aeca 113d 204d 2e3d
00000120: 9176 513c 5dbd 6bbc 7b59 0d3d 82fe 023d
00000130: 25f9 773c e8dc 443d fb4d 093d f72b f9bb
00000140: 71c5 cd3b f084 b7bc 50d2 993c 619d 693d
00000150: ea63 b73d e41d 6f3d e0c8 043d 3d75 0bbc
00000160: e7da 0b3d c501 223d dea4 ecbb d6c1 e43c
00000170: e449 243c 85ec eebb 15ef 83bc 295f 413c
00000180: b49c c73c 3fdf 10bc 7c6a 0f3c 5fbc 8b3d
00000190: e48c 37bc 7c8f 95bb 6a07 17bc 4a1c 8fbc
000001a0: 2357 69bb 0987 1dbd 6ffb 80bd f93a eabb
000001b0: 9405 333d c20d 0d3d 94c4 273d 2939 4ebd
000001c0: 48b4 193c ac6c 0cbd 37e4 48bc a33d f83c
000001d0: afed 1d3d cb76 2fbc e38f 0a3d 235d 08bd
000001e0: ac81 85bb 761d 50bd 6172 11bc 0f49 293d
000001f0: dcc9 323d 4c80 4bbc 3a74 b3bb c1ce bd3b
00000200: 67f8 2e3c 3860 3dbd 6c93 edbd ebe3 54bd
00000210: 10d2 b43b 99c2 9ebd 8101 90bd 2d2c e73c
00000220: f470 7c3d 3216 ac3b dabc 3c3c 5296 c43c
00000230: 545a 05bd aa0d 39bd f91f b4bc da8e 4ebc
00000240: 5b63 063d 0081 4fbb 488c 873d 6a41 19bd
00000250: a063 95bd 62f9 bfbd 5509 a5bb 1c4c 1bbd
00000260: 8a3b 243b 3e1d ed3c ae37 063e adf5 9e3c
00000270: 6920 5f3c a7b6 203c f2ea 1dbd d8ec f4bc
00000280: 5994 1b3d 257a 83bd b3cc 353d a2c9 833d
00000290: 1224 0a3d 29bd 27bd c557 78bb be4d 43bd
000002a0: c6fd 203d 9e4b b03b 92be c9bc 006b dd3d
000002b0: 60ff da3d e415 863c 4bc5 58bd 15d4 f1bc
000002c0: aea9 843d e964 44bd dac8 b73c d422 fb3d
000002d0: 9069 bd3d cd4c 1ebd d528 2abd cae7 16bd
000002e0: 8a8a ae3c a582 63bd 77c1 703c 5c5d 12bb
000002f0: 271d aabc e1cc 36bd fb76 1bbc c765 48bc
00000300: 2d17 07be 3032 0ebd 3723 c4bd 6dd7 a2bd
00000310: 746f 8fbd e80c 07bc e624 12bd a029 5bbd
00000320: 9bc0 923c 726e 70bd 35e3 9bbd 0e3c 1bbd
00000330: 314f 66bd 0a50 f63c 1437 2cbd 28cd 2f3d
00000340: 7d6f 4c3c 398a 80bd c766 b7bd 5a07 1ebd
00000350: 910e d5bd a75a 0e3d a2fa aabc 1875 783d
00000360: 09e8 a0bc 8a76 c0bd e179 6dbd e885 b93d
00000370: 90da 90bd 913f 06bd ab5b 02bc e854 e93c
00000380: e489 50bd 2476 46bd 918c dbbd 32c5 74bc
00000390: b18e 4cbd 8f6a 89bd a8f9 a1bd eac0 fd3b
000003a0: eb6d 063d 425f 973d 1fd4 3fbe 8c8f 1bbc
000003b0: 6392 9fbd a0bf 99bc be30 b7bb 79ad 463d
000003c0: 4546 1a3b 55c7 ccbc 952e d3bc c9f7 bebc
000003d0: 6372 9fbd a412 a0bd d6a1 cebd 62e0 50bd
000003e0: 72dc fb3c a172 5e3d 6ad9 0ebc 8db0 ba3c
000003f0: 5f3b 3dbd 1620 fdbd f50f 00be a0e4 663d

fc1.bias f4 [10]
-0.06651659 -0.40701348 0.08079357 0.1675799 0.38000616 -0.08348428 0.2242019 -0.1985867
0.17607592 -0.27554104
00000000: da39 88bd 1264 d0be 1977 a53d 119a 2b3e
00000010: 2b90 c23e cef9 aabd 2f95 653e 505a 4bbe
00000020: 3f4d 343e b713 8dbe
